{"class_name": "Model", "config": {"name": "model", "layers": [{"class_name": "InputLayer", "config": {"batch_input_shape": [null, 224, 224, 3], "dtype": "float32", "sparse": false, "ragged": false, "name": "input_1"}, "name": "input_1", "inbound_nodes": []}, {"class_name": "Conv2D", "config": {"name": "stem_conv1", "trainable": false, "dtype": "float32", "filters": 96, "kernel_size": [3, 3], "strides": [2, 2], "padding": "valid", "data_format": "channels_last", "dilation_rate": [1, 1], "activation": "linear", "use_bias": false, "kernel_initializer": {"class_name": "VarianceScaling", "config": {"scale": 2.0, "mode": "fan_in", "distribution": "truncated_normal", "seed": null}}, "bias_initializer": {"class_name": "Zeros", "config": {}}, "kernel_regularizer": null, "bias_regularizer": null, "activity_regularizer": null, "kernel_constraint": null, "bias_constraint": null}, "name": "stem_conv1", "inbound_nodes": [[["input_1", 0, 0, {}]]]}, {"class_name": "BatchNormalization", "config": {"name": "stem_bn1", "trainable": false, "dtype": "float32", "axis": [3], "momentum": 0.9997, "epsilon": 0.001, "center": true, "scale": true, "beta_initializer": {"class_name": "Zeros", "config": {}}, "gamma_initializer": {"class_name": "Ones", "config": {}}, "moving_mean_initializer": {"class_name": "Zeros", "config": {}}, "moving_variance_initializer": {"class_name": "Ones", "config": {}}, "beta_regularizer": null, "gamma_regularizer": null, "beta_constraint": null, "gamma_constraint": null}, "name": "stem_bn1", "inbound_nodes": [[["stem_conv1", 0, 0, {}]]]}, {"class_name": "Activation", "config": {"name": "activation", "trainable": false, "dtype": "float32", "activation": "relu"}, "name": "activation", "inbound_nodes": [[["stem_bn1", 0, 0, {}]]]}, {"class_name": "Conv2D", "config": {"name": "reduction_conv_1_stem_1", "trainable": false, "dtype": "float32", "filters": 42, "kernel_size": [1, 1], "strides": [1, 1], "padding": "same", "data_format": "channels_last", "dilation_rate": [1, 1], "activation": "linear", "use_bias": false, "kernel_initializer": {"class_name": "VarianceScaling", "config": {"scale": 2.0, "mode": "fan_in", "distribution": "truncated_normal", "seed": null}}, "bias_initializer": {"class_name": "Zeros", "config": {}}, "kernel_regularizer": null, "bias_regularizer": null, "activity_regularizer": null, "kernel_constraint": null, "bias_constraint": null}, "name": "reduction_conv_1_stem_1", "inbound_nodes": [[["activation", 0, 0, {}]]]}, {"class_name": "BatchNormalization", "config": {"name": "reduction_bn_1_stem_1", "trainable": false, "dtype": "float32", "axis": [3], "momentum": 0.9997, "epsilon": 0.001, "center": true, "scale": true, "beta_initializer": {"class_name": "Zeros", "config": {}}, "gamma_initializer": {"class_name": "Ones", "config": {}}, "moving_mean_initializer": {"class_name": "Zeros", "config": {}}, "moving_variance_initializer": {"class_name": "Ones", "config": {}}, "beta_regularizer": null, "gamma_regularizer": null, "beta_constraint": null, "gamma_constraint": null}, "name": "reduction_bn_1_stem_1", "inbound_nodes": [[["reduction_conv_1_stem_1", 0, 0, {}]]]}, {"class_name": "Activation", "config": {"name": "activation_1", "trainable": false, "dtype": "float32", "activation": "relu"}, "name": "activation_1", "inbound_nodes": [[["reduction_bn_1_stem_1", 0, 0, {}]]]}, {"class_name": "Activation", "config": {"name": "activation_3", "trainable": false, "dtype": "float32", "activation": "relu"}, "name": "activation_3", "inbound_nodes": [[["stem_bn1", 0, 0, {}]]]}, {"class_name": "ZeroPadding2D", "config": {"name": "separable_conv_1_pad_reduction_left1_stem_1", "trainable": false, "dtype": "float32", "padding": [[2, 2], [2, 2]], "data_format": "channels_last"}, "name": "separable_conv_1_pad_reduction_left1_stem_1", "inbound_nodes": [[["activation_1", 0, 0, {}]]]}, {"class_name": "ZeroPadding2D", "config": {"name": "separable_conv_1_pad_reduction_right1_stem_1", "trainable": false, "dtype": "float32", "padding": [[3, 3], [3, 3]], "data_format": "channels_last"}, "name": "separable_conv_1_pad_reduction_right1_stem_1", "inbound_nodes": [[["activation_3", 0, 0, {}]]]}, {"class_name": "SeparableConv2D", "config": {"name": "separable_conv_1_reduction_left1_stem_1", "trainable": false, "dtype": "float32", "filters": 42, "kernel_size": [5, 5], "strides": [2, 2], "padding": "valid", "data_format": "channels_last", "dilation_rate": [1, 1], "activation": "linear", "use_bias": false, "kernel_initializer": {"class_name": "VarianceScaling", "config": {"scale": 2.0, "mode": "fan_in", "distribution": "truncated_normal", "seed": null}}, "bias_initializer": {"class_name": "Zeros", "config": {}}, "kernel_regularizer": null, "bias_regularizer": null, "activity_regularizer": null, "kernel_constraint": null, "bias_constraint": null, "depth_multiplier": 1, "depthwise_initializer": {"class_name": "GlorotUniform", "config": {"seed": null}}, "pointwise_initializer": {"class_name": "GlorotUniform", "config": {"seed": null}}, "depthwise_regularizer": null, "pointwise_regularizer": null, "depthwise_constraint": null, "pointwise_constraint": null}, "name": "separable_conv_1_reduction_left1_stem_1", "inbound_nodes": [[["separable_conv_1_pad_reduction_left1_stem_1", 0, 0, {}]]]}, {"class_name": "SeparableConv2D", "config": {"name": "separable_conv_1_reduction_right1_stem_1", "trainable": false, "dtype": "float32", "filters": 42, "kernel_size": [7, 7], "strides": [2, 2], "padding": "valid", "data_format": "channels_last", "dilation_rate": [1, 1], "activation": "linear", "use_bias": false, "kernel_initializer": {"class_name": "VarianceScaling", "config": {"scale": 2.0, "mode": "fan_in", "distribution": "truncated_normal", "seed": null}}, "bias_initializer": {"class_name": "Zeros", "config": {}}, "kernel_regularizer": null, "bias_regularizer": null, "activity_regularizer": null, "kernel_constraint": null, "bias_constraint": null, "depth_multiplier": 1, "depthwise_initializer": {"class_name": "GlorotUniform", "config": {"seed": null}}, "pointwise_initializer": {"class_name": "GlorotUniform", "config": {"seed": null}}, "depthwise_regularizer": null, "pointwise_regularizer": null, "depthwise_constraint": null, "pointwise_constraint": null}, "name": "separable_conv_1_reduction_right1_stem_1", "inbound_nodes": [[["separable_conv_1_pad_reduction_right1_stem_1", 0, 0, {}]]]}, {"class_name": "BatchNormalization", "config": {"name": "separable_conv_1_bn_reduction_left1_stem_1", "trainable": false, "dtype": "float32", "axis": [3], "momentum": 0.9997, "epsilon": 0.001, "center": true, "scale": true, "beta_initializer": {"class_name": "Zeros", "config": {}}, "gamma_initializer": {"class_name": "Ones", "config": {}}, "moving_mean_initializer": {"class_name": "Zeros", "config": {}}, "moving_variance_initializer": {"class_name": "Ones", "config": {}}, "beta_regularizer": null, "gamma_regularizer": null, "beta_constraint": null, "gamma_constraint": null}, "name": "separable_conv_1_bn_reduction_left1_stem_1", "inbound_nodes": [[["separable_conv_1_reduction_left1_stem_1", 0, 0, {}]]]}, {"class_name": "BatchNormalization", "config": {"name": "separable_conv_1_bn_reduction_right1_stem_1", "trainable": false, "dtype": "float32", "axis": [3], "momentum": 0.9997, "epsilon": 0.001, "center": true, "scale": true, "beta_initializer": {"class_name": "Zeros", "config": {}}, "gamma_initializer": {"class_name": "Ones", "config": {}}, "moving_mean_initializer": {"class_name": "Zeros", "config": {}}, "moving_variance_initializer": {"class_name": "Ones", "config": {}}, "beta_regularizer": null, "gamma_regularizer": null, "beta_constraint": null, "gamma_constraint": null}, "name": "separable_conv_1_bn_reduction_right1_stem_1", "inbound_nodes": [[["separable_conv_1_reduction_right1_stem_1", 0, 0, {}]]]}, {"class_name": "Activation", "config": {"name": "activation_2", "trainable": false, "dtype": "float32", "activation": "relu"}, "name": "activation_2", "inbound_nodes": [[["separable_conv_1_bn_reduction_left1_stem_1", 0, 0, {}]]]}, {"class_name": "Activation", "config": {"name": "activation_4", "trainable": false, "dtype": "float32", "activation": "relu"}, "name": "activation_4", "inbound_nodes": [[["separable_conv_1_bn_reduction_right1_stem_1", 0, 0, {}]]]}, {"class_name": "SeparableConv2D", "config": {"name": "separable_conv_2_reduction_left1_stem_1", "trainable": false, "dtype": "float32", "filters": 42, "kernel_size": [5, 5], "strides": [1, 1], "padding": "same", "data_format": "channels_last", "dilation_rate": [1, 1], "activation": "linear", "use_bias": false, "kernel_initializer": {"class_name": "VarianceScaling", "config": {"scale": 2.0, "mode": "fan_in", "distribution": "truncated_normal", "seed": null}}, "bias_initializer": {"class_name": "Zeros", "config": {}}, "kernel_regularizer": null, "bias_regularizer": null, "activity_regularizer": null, "kernel_constraint": null, "bias_constraint": null, "depth_multiplier": 1, "depthwise_initializer": {"class_name": "GlorotUniform", "config": {"seed": null}}, "pointwise_initializer": {"class_name": "GlorotUniform", "config": {"seed": null}}, "depthwise_regularizer": null, "pointwise_regularizer": null, "depthwise_constraint": null, "pointwise_constraint": null}, "name": "separable_conv_2_reduction_left1_stem_1", "inbound_nodes": [[["activation_2", 0, 0, {}]]]}, {"class_name": "SeparableConv2D", "config": {"name": "separable_conv_2_reduction_right1_stem_1", "trainable": false, "dtype": "float32", "filters": 42, "kernel_size": [7, 7], "strides": [1, 1], "padding": "same", "data_format": "channels_last", "dilation_rate": [1, 1], "activation": "linear", "use_bias": false, "kernel_initializer": {"class_name": "VarianceScaling", "config": {"scale": 2.0, "mode": "fan_in", "distribution": "truncated_normal", "seed": null}}, "bias_initializer": {"class_name": "Zeros", "config": {}}, "kernel_regularizer": null, "bias_regularizer": null, "activity_regularizer": null, "kernel_constraint": null, "bias_constraint": null, "depth_multiplier": 1, "depthwise_initializer": {"class_name": "GlorotUniform", "config": {"seed": null}}, "pointwise_initializer": {"class_name": "GlorotUniform", "config": {"seed": null}}, "depthwise_regularizer": null, "pointwise_regularizer": null, "depthwise_constraint": null, "pointwise_constraint": null}, "name": "separable_conv_2_reduction_right1_stem_1", "inbound_nodes": [[["activation_4", 0, 0, {}]]]}, {"class_name": "Activation", "config": {"name": "activation_5", "trainable": false, "dtype": "float32", "activation": "relu"}, "name": "activation_5", "inbound_nodes": [[["stem_bn1", 0, 0, {}]]]}, {"class_name": "BatchNormalization", "config": {"name": "separable_conv_2_bn_reduction_left1_stem_1", "trainable": false, "dtype": "float32", "axis": [3], "momentum": 0.9997, "epsilon": 0.001, "center": true, "scale": true, "beta_initializer": {"class_name": "Zeros", "config": {}}, "gamma_initializer": {"class_name": "Ones", "config": {}}, "moving_mean_initializer": {"class_name": "Zeros", "config": {}}, "moving_variance_initializer": {"class_name": "Ones", "config": {}}, "beta_regularizer": null, "gamma_regularizer": null, "beta_constraint": null, "gamma_constraint": null}, "name": "separable_conv_2_bn_reduction_left1_stem_1", "inbound_nodes": [[["separable_conv_2_reduction_left1_stem_1", 0, 0, {}]]]}, {"class_name": "BatchNormalization", "config": {"name": "separable_conv_2_bn_reduction_right1_stem_1", "trainable": false, "dtype": "float32", "axis": [3], "momentum": 0.9997, "epsilon": 0.001, "center": true, "scale": true, "beta_initializer": {"class_name": "Zeros", "config": {}}, "gamma_initializer": {"class_name": "Ones", "config": {}}, "moving_mean_initializer": {"class_name": "Zeros", "config": {}}, "moving_variance_initializer": {"class_name": "Ones", "config": {}}, "beta_regularizer": null, "gamma_regularizer": null, "beta_constraint": null, "gamma_constraint": null}, "name": "separable_conv_2_bn_reduction_right1_stem_1", "inbound_nodes": [[["separable_conv_2_reduction_right1_stem_1", 0, 0, {}]]]}, {"class_name": "ZeroPadding2D", "config": {"name": "separable_conv_1_pad_reduction_right2_stem_1", "trainable": false, "dtype": "float32", "padding": [[3, 3], [3, 3]], "data_format": "channels_last"}, "name": "separable_conv_1_pad_reduction_right2_stem_1", "inbound_nodes": [[["activation_5", 0, 0, {}]]]}, {"class_name": "Activation", "config": {"name": "activation_7", "trainable": false, "dtype": "float32", "activation": "relu"}, "name": "activation_7", "inbound_nodes": [[["stem_bn1", 0, 0, {}]]]}, {"class_name": "Add", "config": {"name": "reduction_add_1_stem_1", "trainable": false, "dtype": "float32"}, "name": "reduction_add_1_stem_1", "inbound_nodes": [[["separable_conv_2_bn_reduction_left1_stem_1", 0, 0, {}], ["separable_conv_2_bn_reduction_right1_stem_1", 0, 0, {}]]]}, {"class_name": "SeparableConv2D", "config": {"name": "separable_conv_1_reduction_right2_stem_1", "trainable": false, "dtype": "float32", "filters": 42, "kernel_size": [7, 7], "strides": [2, 2], "padding": "valid", "data_format": "channels_last", "dilation_rate": [1, 1], "activation": "linear", "use_bias": false, "kernel_initializer": {"class_name": "VarianceScaling", "config": {"scale": 2.0, "mode": "fan_in", "distribution": "truncated_normal", "seed": null}}, "bias_initializer": {"class_name": "Zeros", "config": {}}, "kernel_regularizer": null, "bias_regularizer": null, "activity_regularizer": null, "kernel_constraint": null, "bias_constraint": null, "depth_multiplier": 1, "depthwise_initializer": {"class_name": "GlorotUniform", "config": {"seed": null}}, "pointwise_initializer": {"class_name": "GlorotUniform", "config": {"seed": null}}, "depthwise_regularizer": null, "pointwise_regularizer": null, "depthwise_constraint": null, "pointwise_constraint": null}, "name": "separable_conv_1_reduction_right2_stem_1", "inbound_nodes": [[["separable_conv_1_pad_reduction_right2_stem_1", 0, 0, {}]]]}, {"class_name": "ZeroPadding2D", "config": {"name": "separable_conv_1_pad_reduction_right3_stem_1", "trainable": false, "dtype": "float32", "padding": [[2, 2], [2, 2]], "data_format": "channels_last"}, "name": "separable_conv_1_pad_reduction_right3_stem_1", "inbound_nodes": [[["activation_7", 0, 0, {}]]]}, {"class_name": "Activation", "config": {"name": "activation_9", "trainable": false, "dtype": "float32", "activation": "relu"}, "name": "activation_9", "inbound_nodes": [[["reduction_add_1_stem_1", 0, 0, {}]]]}, {"class_name": "BatchNormalization", "config": {"name": "separable_conv_1_bn_reduction_right2_stem_1", "trainable": false, "dtype": "float32", "axis": [3], "momentum": 0.9997, "epsilon": 0.001, "center": true, "scale": true, "beta_initializer": {"class_name": "Zeros", "config": {}}, "gamma_initializer": {"class_name": "Ones", "config": {}}, "moving_mean_initializer": {"class_name": "Zeros", "config": {}}, "moving_variance_initializer": {"class_name": "Ones", "config": {}}, "beta_regularizer": null, "gamma_regularizer": null, "beta_constraint": null, "gamma_constraint": null}, "name": "separable_conv_1_bn_reduction_right2_stem_1", "inbound_nodes": [[["separable_conv_1_reduction_right2_stem_1", 0, 0, {}]]]}, {"class_name": "SeparableConv2D", "config": {"name": "separable_conv_1_reduction_right3_stem_1", "trainable": false, "dtype": "float32", "filters": 42, "kernel_size": [5, 5], "strides": [2, 2], "padding": "valid", "data_format": "channels_last", "dilation_rate": [1, 1], "activation": "linear", "use_bias": false, "kernel_initializer": {"class_name": "VarianceScaling", "config": {"scale": 2.0, "mode": "fan_in", "distribution": "truncated_normal", "seed": null}}, "bias_initializer": {"class_name": "Zeros", "config": {}}, "kernel_regularizer": null, "bias_regularizer": null, "activity_regularizer": null, "kernel_constraint": null, "bias_constraint": null, "depth_multiplier": 1, "depthwise_initializer": {"class_name": "GlorotUniform", "config": {"seed": null}}, "pointwise_initializer": {"class_name": "GlorotUniform", "config": {"seed": null}}, "depthwise_regularizer": null, "pointwise_regularizer": null, "depthwise_constraint": null, "pointwise_constraint": null}, "name": "separable_conv_1_reduction_right3_stem_1", "inbound_nodes": [[["separable_conv_1_pad_reduction_right3_stem_1", 0, 0, {}]]]}, {"class_name": "SeparableConv2D", "config": {"name": "separable_conv_1_reduction_left4_stem_1", "trainable": false, "dtype": "float32", "filters": 42, "kernel_size": [3, 3], "strides": [1, 1], "padding": "same", "data_format": "channels_last", "dilation_rate": [1, 1], "activation": "linear", "use_bias": false, "kernel_initializer": {"class_name": "VarianceScaling", "config": {"scale": 2.0, "mode": "fan_in", "distribution": "truncated_normal", "seed": null}}, "bias_initializer": {"class_name": "Zeros", "config": {}}, "kernel_regularizer": null, "bias_regularizer": null, "activity_regularizer": null, "kernel_constraint": null, "bias_constraint": null, "depth_multiplier": 1, "depthwise_initializer": {"class_name": "GlorotUniform", "config": {"seed": null}}, "pointwise_initializer": {"class_name": "GlorotUniform", "config": {"seed": null}}, "depthwise_regularizer": null, "pointwise_regularizer": null, "depthwise_constraint": null, "pointwise_constraint": null}, "name": "separable_conv_1_reduction_left4_stem_1", "inbound_nodes": [[["activation_9", 0, 0, {}]]]}, {"class_name": "Activation", "config": {"name": "activation_6", "trainable": false, "dtype": "float32", "activation": "relu"}, "name": "activation_6", "inbound_nodes": [[["separable_conv_1_bn_reduction_right2_stem_1", 0, 0, {}]]]}, {"class_name": "BatchNormalization", "config": {"name": "separable_conv_1_bn_reduction_right3_stem_1", "trainable": false, "dtype": "float32", "axis": [3], "momentum": 0.9997, "epsilon": 0.001, "center": true, "scale": true, "beta_initializer": {"class_name": "Zeros", "config": {}}, "gamma_initializer": {"class_name": "Ones", "config": {}}, "moving_mean_initializer": {"class_name": "Zeros", "config": {}}, "moving_variance_initializer": {"class_name": "Ones", "config": {}}, "beta_regularizer": null, "gamma_regularizer": null, "beta_constraint": null, "gamma_constraint": null}, "name": "separable_conv_1_bn_reduction_right3_stem_1", "inbound_nodes": [[["separable_conv_1_reduction_right3_stem_1", 0, 0, {}]]]}, {"class_name": "BatchNormalization", "config": {"name": "separable_conv_1_bn_reduction_left4_stem_1", "trainable": false, "dtype": "float32", "axis": [3], "momentum": 0.9997, "epsilon": 0.001, "center": true, "scale": true, "beta_initializer": {"class_name": "Zeros", "config": {}}, "gamma_initializer": {"class_name": "Ones", "config": {}}, "moving_mean_initializer": {"class_name": "Zeros", "config": {}}, "moving_variance_initializer": {"class_name": "Ones", "config": {}}, "beta_regularizer": null, "gamma_regularizer": null, "beta_constraint": null, "gamma_constraint": null}, "name": "separable_conv_1_bn_reduction_left4_stem_1", "inbound_nodes": [[["separable_conv_1_reduction_left4_stem_1", 0, 0, {}]]]}, {"class_name": "ZeroPadding2D", "config": {"name": "reduction_pad_1_stem_1", "trainable": false, "dtype": "float32", "padding": [[1, 1], [1, 1]], "data_format": "channels_last"}, "name": "reduction_pad_1_stem_1", "inbound_nodes": [[["reduction_bn_1_stem_1", 0, 0, {}]]]}, {"class_name": "SeparableConv2D", "config": {"name": "separable_conv_2_reduction_right2_stem_1", "trainable": false, "dtype": "float32", "filters": 42, "kernel_size": [7, 7], "strides": [1, 1], "padding": "same", "data_format": "channels_last", "dilation_rate": [1, 1], "activation": "linear", "use_bias": false, "kernel_initializer": {"class_name": "VarianceScaling", "config": {"scale": 2.0, "mode": "fan_in", "distribution": "truncated_normal", "seed": null}}, "bias_initializer": {"class_name": "Zeros", "config": {}}, "kernel_regularizer": null, "bias_regularizer": null, "activity_regularizer": null, "kernel_constraint": null, "bias_constraint": null, "depth_multiplier": 1, "depthwise_initializer": {"class_name": "GlorotUniform", "config": {"seed": null}}, "pointwise_initializer": {"class_name": "GlorotUniform", "config": {"seed": null}}, "depthwise_regularizer": null, "pointwise_regularizer": null, "depthwise_constraint": null, "pointwise_constraint": null}, "name": "separable_conv_2_reduction_right2_stem_1", "inbound_nodes": [[["activation_6", 0, 0, {}]]]}, {"class_name": "Activation", "config": {"name": "activation_8", "trainable": false, "dtype": "float32", "activation": "relu"}, "name": "activation_8", "inbound_nodes": [[["separable_conv_1_bn_reduction_right3_stem_1", 0, 0, {}]]]}, {"class_name": "Activation", "config": {"name": "activation_10", "trainable": false, "dtype": "float32", "activation": "relu"}, "name": "activation_10", "inbound_nodes": [[["separable_conv_1_bn_reduction_left4_stem_1", 0, 0, {}]]]}, {"class_name": "MaxPooling2D", "config": {"name": "reduction_left2_stem_1", "trainable": false, "dtype": "float32", "pool_size": [3, 3], "padding": "valid", "strides": [2, 2], "data_format": "channels_last"}, "name": "reduction_left2_stem_1", "inbound_nodes": [[["reduction_pad_1_stem_1", 0, 0, {}]]]}, {"class_name": "BatchNormalization", "config": {"name": "separable_conv_2_bn_reduction_right2_stem_1", "trainable": false, "dtype": "float32", "axis": [3], "momentum": 0.9997, "epsilon": 0.001, "center": true, "scale": true, "beta_initializer": {"class_name": "Zeros", "config": {}}, "gamma_initializer": {"class_name": "Ones", "config": {}}, "moving_mean_initializer": {"class_name": "Zeros", "config": {}}, "moving_variance_initializer": {"class_name": "Ones", "config": {}}, "beta_regularizer": null, "gamma_regularizer": null, "beta_constraint": null, "gamma_constraint": null}, "name": "separable_conv_2_bn_reduction_right2_stem_1", "inbound_nodes": [[["separable_conv_2_reduction_right2_stem_1", 0, 0, {}]]]}, {"class_name": "SeparableConv2D", "config": {"name": "separable_conv_2_reduction_right3_stem_1", "trainable": false, "dtype": "float32", "filters": 42, "kernel_size": [5, 5], "strides": [1, 1], "padding": "same", "data_format": "channels_last", "dilation_rate": [1, 1], "activation": "linear", "use_bias": false, "kernel_initializer": {"class_name": "VarianceScaling", "config": {"scale": 2.0, "mode": "fan_in", "distribution": "truncated_normal", "seed": null}}, "bias_initializer": {"class_name": "Zeros", "config": {}}, "kernel_regularizer": null, "bias_regularizer": null, "activity_regularizer": null, "kernel_constraint": null, "bias_constraint": null, "depth_multiplier": 1, "depthwise_initializer": {"class_name": "GlorotUniform", "config": {"seed": null}}, "pointwise_initializer": {"class_name": "GlorotUniform", "config": {"seed": null}}, "depthwise_regularizer": null, "pointwise_regularizer": null, "depthwise_constraint": null, "pointwise_constraint": null}, "name": "separable_conv_2_reduction_right3_stem_1", "inbound_nodes": [[["activation_8", 0, 0, {}]]]}, {"class_name": "SeparableConv2D", "config": {"name": "separable_conv_2_reduction_left4_stem_1", "trainable": false, "dtype": "float32", "filters": 42, "kernel_size": [3, 3], "strides": [1, 1], "padding": "same", "data_format": "channels_last", "dilation_rate": [1, 1], "activation": "linear", "use_bias": false, "kernel_initializer": {"class_name": "VarianceScaling", "config": {"scale": 2.0, "mode": "fan_in", "distribution": "truncated_normal", "seed": null}}, "bias_initializer": {"class_name": "Zeros", "config": {}}, "kernel_regularizer": null, "bias_regularizer": null, "activity_regularizer": null, "kernel_constraint": null, "bias_constraint": null, "depth_multiplier": 1, "depthwise_initializer": {"class_name": "GlorotUniform", "config": {"seed": null}}, "pointwise_initializer": {"class_name": "GlorotUniform", "config": {"seed": null}}, "depthwise_regularizer": null, "pointwise_regularizer": null, "depthwise_constraint": null, "pointwise_constraint": null}, "name": "separable_conv_2_reduction_left4_stem_1", "inbound_nodes": [[["activation_10", 0, 0, {}]]]}, {"class_name": "Activation", "config": {"name": "adjust_relu_1_stem_2", "trainable": false, "dtype": "float32", "activation": "relu"}, "name": "adjust_relu_1_stem_2", "inbound_nodes": [[["stem_bn1", 0, 0, {}]]]}, {"class_name": "Add", "config": {"name": "reduction_add_2_stem_1", "trainable": false, "dtype": "float32"}, "name": "reduction_add_2_stem_1", "inbound_nodes": [[["reduction_left2_stem_1", 0, 0, {}], ["separable_conv_2_bn_reduction_right2_stem_1", 0, 0, {}]]]}, {"class_name": "AveragePooling2D", "config": {"name": "reduction_left3_stem_1", "trainable": false, "dtype": "float32", "pool_size": [3, 3], "padding": "valid", "strides": [2, 2], "data_format": "channels_last"}, "name": "reduction_left3_stem_1", "inbound_nodes": [[["reduction_pad_1_stem_1", 0, 0, {}]]]}, {"class_name": "BatchNormalization", "config": {"name": "separable_conv_2_bn_reduction_right3_stem_1", "trainable": false, "dtype": "float32", "axis": [3], "momentum": 0.9997, "epsilon": 0.001, "center": true, "scale": true, "beta_initializer": {"class_name": "Zeros", "config": {}}, "gamma_initializer": {"class_name": "Ones", "config": {}}, "moving_mean_initializer": {"class_name": "Zeros", "config": {}}, "moving_variance_initializer": {"class_name": "Ones", "config": {}}, "beta_regularizer": null, "gamma_regularizer": null, "beta_constraint": null, "gamma_constraint": null}, "name": "separable_conv_2_bn_reduction_right3_stem_1", "inbound_nodes": [[["separable_conv_2_reduction_right3_stem_1", 0, 0, {}]]]}, {"class_name": "AveragePooling2D", "config": {"name": "reduction_left4_stem_1", "trainable": false, "dtype": "float32", "pool_size": [3, 3], "padding": "same", "strides": [1, 1], "data_format": "channels_last"}, "name": "reduction_left4_stem_1", "inbound_nodes": [[["reduction_add_1_stem_1", 0, 0, {}]]]}, {"class_name": "BatchNormalization", "config": {"name": "separable_conv_2_bn_reduction_left4_stem_1", "trainable": false, "dtype": "float32", "axis": [3], "momentum": 0.9997, "epsilon": 0.001, "center": true, "scale": true, "beta_initializer": {"class_name": "Zeros", "config": {}}, "gamma_initializer": {"class_name": "Ones", "config": {}}, "moving_mean_initializer": {"class_name": "Zeros", "config": {}}, "moving_variance_initializer": {"class_name": "Ones", "config": {}}, "beta_regularizer": null, "gamma_regularizer": null, "beta_constraint": null, "gamma_constraint": null}, "name": "separable_conv_2_bn_reduction_left4_stem_1", "inbound_nodes": [[["separable_conv_2_reduction_left4_stem_1", 0, 0, {}]]]}, {"class_name": "MaxPooling2D", "config": {"name": "reduction_right5_stem_1", "trainable": false, "dtype": "float32", "pool_size": [3, 3], "padding": "valid", "strides": [2, 2], "data_format": "channels_last"}, "name": "reduction_right5_stem_1", "inbound_nodes": [[["reduction_pad_1_stem_1", 0, 0, {}]]]}, {"class_name": "ZeroPadding2D", "config": {"name": "zero_padding2d", "trainable": false, "dtype": "float32", "padding": [[0, 1], [0, 1]], "data_format": "channels_last"}, "name": "zero_padding2d", "inbound_nodes": [[["adjust_relu_1_stem_2", 0, 0, {}]]]}, {"class_name": "Add", "config": {"name": "reduction_add3_stem_1", "trainable": false, "dtype": "float32"}, "name": "reduction_add3_stem_1", "inbound_nodes": [[["reduction_left3_stem_1", 0, 0, {}], ["separable_conv_2_bn_reduction_right3_stem_1", 0, 0, {}]]]}, {"class_name": "Add", "config": {"name": "add", "trainable": false, "dtype": "float32"}, "name": "add", "inbound_nodes": [[["reduction_add_2_stem_1", 0, 0, {}], ["reduction_left4_stem_1", 0, 0, {}]]]}, {"class_name": "Add", "config": {"name": "reduction_add4_stem_1", "trainable": false, "dtype": "float32"}, "name": "reduction_add4_stem_1", "inbound_nodes": [[["separable_conv_2_bn_reduction_left4_stem_1", 0, 0, {}], ["reduction_right5_stem_1", 0, 0, {}]]]}, {"class_name": "Cropping2D", "config": {"name": "cropping2d", "trainable": false, "dtype": "float32", "cropping": [[1, 0], [1, 0]], "data_format": "channels_last"}, "name": "cropping2d", "inbound_nodes": [[["zero_padding2d", 0, 0, {}]]]}, {"class_name": "Concatenate", "config": {"name": "reduction_concat_stem_1", "trainable": false, "dtype": "float32", "axis": -1}, "name": "reduction_concat_stem_1", "inbound_nodes": [[["reduction_add_2_stem_1", 0, 0, {}], ["reduction_add3_stem_1", 0, 0, {}], ["add", 0, 0, {}], ["reduction_add4_stem_1", 0, 0, {}]]]}, {"class_name": "AveragePooling2D", "config": {"name": "adjust_avg_pool_1_stem_2", "trainable": false, "dtype": "float32", "pool_size": [1, 1], "padding": "valid", "strides": [2, 2], "data_format": "channels_last"}, "name": "adjust_avg_pool_1_stem_2", "inbound_nodes": [[["adjust_relu_1_stem_2", 0, 0, {}]]]}, {"class_name": "AveragePooling2D", "config": {"name": "adjust_avg_pool_2_stem_2", "trainable": false, "dtype": "float32", "pool_size": [1, 1], "padding": "valid", "strides": [2, 2], "data_format": "channels_last"}, "name": "adjust_avg_pool_2_stem_2", "inbound_nodes": [[["cropping2d", 0, 0, {}]]]}, {"class_name": "Activation", "config": {"name": "activation_11", "trainable": false, "dtype": "float32", "activation": "relu"}, "name": "activation_11", "inbound_nodes": [[["reduction_concat_stem_1", 0, 0, {}]]]}, {"class_name": "Conv2D", "config": {"name": "adjust_conv_1_stem_2", "trainable": false, "dtype": "float32", "filters": 42, "kernel_size": [1, 1], "strides": [1, 1], "padding": "same", "data_format": "channels_last", "dilation_rate": [1, 1], "activation": "linear", "use_bias": false, "kernel_initializer": {"class_name": "VarianceScaling", "config": {"scale": 2.0, "mode": "fan_in", "distribution": "truncated_normal", "seed": null}}, "bias_initializer": {"class_name": "Zeros", "config": {}}, "kernel_regularizer": null, "bias_regularizer": null, "activity_regularizer": null, "kernel_constraint": null, "bias_constraint": null}, "name": "adjust_conv_1_stem_2", "inbound_nodes": [[["adjust_avg_pool_1_stem_2", 0, 0, {}]]]}, {"class_name": "Conv2D", "config": {"name": "adjust_conv_2_stem_2", "trainable": false, "dtype": "float32", "filters": 42, "kernel_size": [1, 1], "strides": [1, 1], "padding": "same", "data_format": "channels_last", "dilation_rate": [1, 1], "activation": "linear", "use_bias": false, "kernel_initializer": {"class_name": "VarianceScaling", "config": {"scale": 2.0, "mode": "fan_in", "distribution": "truncated_normal", "seed": null}}, "bias_initializer": {"class_name": "Zeros", "config": {}}, "kernel_regularizer": null, "bias_regularizer": null, "activity_regularizer": null, "kernel_constraint": null, "bias_constraint": null}, "name": "adjust_conv_2_stem_2", "inbound_nodes": [[["adjust_avg_pool_2_stem_2", 0, 0, {}]]]}, {"class_name": "Conv2D", "config": {"name": "reduction_conv_1_stem_2", "trainable": false, "dtype": "float32", "filters": 84, "kernel_size": [1, 1], "strides": [1, 1], "padding": "same", "data_format": "channels_last", "dilation_rate": [1, 1], "activation": "linear", "use_bias": false, "kernel_initializer": {"class_name": "VarianceScaling", "config": {"scale": 2.0, "mode": "fan_in", "distribution": "truncated_normal", "seed": null}}, "bias_initializer": {"class_name": "Zeros", "config": {}}, "kernel_regularizer": null, "bias_regularizer": null, "activity_regularizer": null, "kernel_constraint": null, "bias_constraint": null}, "name": "reduction_conv_1_stem_2", "inbound_nodes": [[["activation_11", 0, 0, {}]]]}, {"class_name": "Concatenate", "config": {"name": "concatenate", "trainable": false, "dtype": "float32", "axis": -1}, "name": "concatenate", "inbound_nodes": [[["adjust_conv_1_stem_2", 0, 0, {}], ["adjust_conv_2_stem_2", 0, 0, {}]]]}, {"class_name": "BatchNormalization", "config": {"name": "reduction_bn_1_stem_2", "trainable": false, "dtype": "float32", "axis": [3], "momentum": 0.9997, "epsilon": 0.001, "center": true, "scale": true, "beta_initializer": {"class_name": "Zeros", "config": {}}, "gamma_initializer": {"class_name": "Ones", "config": {}}, "moving_mean_initializer": {"class_name": "Zeros", "config": {}}, "moving_variance_initializer": {"class_name": "Ones", "config": {}}, "beta_regularizer": null, "gamma_regularizer": null, "beta_constraint": null, "gamma_constraint": null}, "name": "reduction_bn_1_stem_2", "inbound_nodes": [[["reduction_conv_1_stem_2", 0, 0, {}]]]}, {"class_name": "BatchNormalization", "config": {"name": "adjust_bn_stem_2", "trainable": false, "dtype": "float32", "axis": [3], "momentum": 0.9997, "epsilon": 0.001, "center": true, "scale": true, "beta_initializer": {"class_name": "Zeros", "config": {}}, "gamma_initializer": {"class_name": "Ones", "config": {}}, "moving_mean_initializer": {"class_name": "Zeros", "config": {}}, "moving_variance_initializer": {"class_name": "Ones", "config": {}}, "beta_regularizer": null, "gamma_regularizer": null, "beta_constraint": null, "gamma_constraint": null}, "name": "adjust_bn_stem_2", "inbound_nodes": [[["concatenate", 0, 0, {}]]]}, {"class_name": "Activation", "config": {"name": "activation_12", "trainable": false, "dtype": "float32", "activation": "relu"}, "name": "activation_12", "inbound_nodes": [[["reduction_bn_1_stem_2", 0, 0, {}]]]}, {"class_name": "Activation", "config": {"name": "activation_14", "trainable": false, "dtype": "float32", "activation": "relu"}, "name": "activation_14", "inbound_nodes": [[["adjust_bn_stem_2", 0, 0, {}]]]}, {"class_name": "ZeroPadding2D", "config": {"name": "separable_conv_1_pad_reduction_left1_stem_2", "trainable": false, "dtype": "float32", "padding": [[1, 2], [1, 2]], "data_format": "channels_last"}, "name": "separable_conv_1_pad_reduction_left1_stem_2", "inbound_nodes": [[["activation_12", 0, 0, {}]]]}, {"class_name": "ZeroPadding2D", "config": {"name": "separable_conv_1_pad_reduction_right1_stem_2", "trainable": false, "dtype": "float32", "padding": [[2, 3], [2, 3]], "data_format": "channels_last"}, "name": "separable_conv_1_pad_reduction_right1_stem_2", "inbound_nodes": [[["activation_14", 0, 0, {}]]]}, {"class_name": "SeparableConv2D", "config": {"name": "separable_conv_1_reduction_left1_stem_2", "trainable": false, "dtype": "float32", "filters": 84, "kernel_size": [5, 5], "strides": [2, 2], "padding": "valid", "data_format": "channels_last", "dilation_rate": [1, 1], "activation": "linear", "use_bias": false, "kernel_initializer": {"class_name": "VarianceScaling", "config": {"scale": 2.0, "mode": "fan_in", "distribution": "truncated_normal", "seed": null}}, "bias_initializer": {"class_name": "Zeros", "config": {}}, "kernel_regularizer": null, "bias_regularizer": null, "activity_regularizer": null, "kernel_constraint": null, "bias_constraint": null, "depth_multiplier": 1, "depthwise_initializer": {"class_name": "GlorotUniform", "config": {"seed": null}}, "pointwise_initializer": {"class_name": "GlorotUniform", "config": {"seed": null}}, "depthwise_regularizer": null, "pointwise_regularizer": null, "depthwise_constraint": null, "pointwise_constraint": null}, "name": "separable_conv_1_reduction_left1_stem_2", "inbound_nodes": [[["separable_conv_1_pad_reduction_left1_stem_2", 0, 0, {}]]]}, {"class_name": "SeparableConv2D", "config": {"name": "separable_conv_1_reduction_right1_stem_2", "trainable": false, "dtype": "float32", "filters": 84, "kernel_size": [7, 7], "strides": [2, 2], "padding": "valid", "data_format": "channels_last", "dilation_rate": [1, 1], "activation": "linear", "use_bias": false, "kernel_initializer": {"class_name": "VarianceScaling", "config": {"scale": 2.0, "mode": "fan_in", "distribution": "truncated_normal", "seed": null}}, "bias_initializer": {"class_name": "Zeros", "config": {}}, "kernel_regularizer": null, "bias_regularizer": null, "activity_regularizer": null, "kernel_constraint": null, "bias_constraint": null, "depth_multiplier": 1, "depthwise_initializer": {"class_name": "GlorotUniform", "config": {"seed": null}}, "pointwise_initializer": {"class_name": "GlorotUniform", "config": {"seed": null}}, "depthwise_regularizer": null, "pointwise_regularizer": null, "depthwise_constraint": null, "pointwise_constraint": null}, "name": "separable_conv_1_reduction_right1_stem_2", "inbound_nodes": [[["separable_conv_1_pad_reduction_right1_stem_2", 0, 0, {}]]]}, {"class_name": "BatchNormalization", "config": {"name": "separable_conv_1_bn_reduction_left1_stem_2", "trainable": false, "dtype": "float32", "axis": [3], "momentum": 0.9997, "epsilon": 0.001, "center": true, "scale": true, "beta_initializer": {"class_name": "Zeros", "config": {}}, "gamma_initializer": {"class_name": "Ones", "config": {}}, "moving_mean_initializer": {"class_name": "Zeros", "config": {}}, "moving_variance_initializer": {"class_name": "Ones", "config": {}}, "beta_regularizer": null, "gamma_regularizer": null, "beta_constraint": null, "gamma_constraint": null}, "name": "separable_conv_1_bn_reduction_left1_stem_2", "inbound_nodes": [[["separable_conv_1_reduction_left1_stem_2", 0, 0, {}]]]}, {"class_name": "BatchNormalization", "config": {"name": "separable_conv_1_bn_reduction_right1_stem_2", "trainable": false, "dtype": "float32", "axis": [3], "momentum": 0.9997, "epsilon": 0.001, "center": true, "scale": true, "beta_initializer": {"class_name": "Zeros", "config": {}}, "gamma_initializer": {"class_name": "Ones", "config": {}}, "moving_mean_initializer": {"class_name": "Zeros", "config": {}}, "moving_variance_initializer": {"class_name": "Ones", "config": {}}, "beta_regularizer": null, "gamma_regularizer": null, "beta_constraint": null, "gamma_constraint": null}, "name": "separable_conv_1_bn_reduction_right1_stem_2", "inbound_nodes": [[["separable_conv_1_reduction_right1_stem_2", 0, 0, {}]]]}, {"class_name": "Activation", "config": {"name": "activation_13", "trainable": false, "dtype": "float32", "activation": "relu"}, "name": "activation_13", "inbound_nodes": [[["separable_conv_1_bn_reduction_left1_stem_2", 0, 0, {}]]]}, {"class_name": "Activation", "config": {"name": "activation_15", "trainable": false, "dtype": "float32", "activation": "relu"}, "name": "activation_15", "inbound_nodes": [[["separable_conv_1_bn_reduction_right1_stem_2", 0, 0, {}]]]}, {"class_name": "SeparableConv2D", "config": {"name": "separable_conv_2_reduction_left1_stem_2", "trainable": false, "dtype": "float32", "filters": 84, "kernel_size": [5, 5], "strides": [1, 1], "padding": "same", "data_format": "channels_last", "dilation_rate": [1, 1], "activation": "linear", "use_bias": false, "kernel_initializer": {"class_name": "VarianceScaling", "config": {"scale": 2.0, "mode": "fan_in", "distribution": "truncated_normal", "seed": null}}, "bias_initializer": {"class_name": "Zeros", "config": {}}, "kernel_regularizer": null, "bias_regularizer": null, "activity_regularizer": null, "kernel_constraint": null, "bias_constraint": null, "depth_multiplier": 1, "depthwise_initializer": {"class_name": "GlorotUniform", "config": {"seed": null}}, "pointwise_initializer": {"class_name": "GlorotUniform", "config": {"seed": null}}, "depthwise_regularizer": null, "pointwise_regularizer": null, "depthwise_constraint": null, "pointwise_constraint": null}, "name": "separable_conv_2_reduction_left1_stem_2", "inbound_nodes": [[["activation_13", 0, 0, {}]]]}, {"class_name": "SeparableConv2D", "config": {"name": "separable_conv_2_reduction_right1_stem_2", "trainable": false, "dtype": "float32", "filters": 84, "kernel_size": [7, 7], "strides": [1, 1], "padding": "same", "data_format": "channels_last", "dilation_rate": [1, 1], "activation": "linear", "use_bias": false, "kernel_initializer": {"class_name": "VarianceScaling", "config": {"scale": 2.0, "mode": "fan_in", "distribution": "truncated_normal", "seed": null}}, "bias_initializer": {"class_name": "Zeros", "config": {}}, "kernel_regularizer": null, "bias_regularizer": null, "activity_regularizer": null, "kernel_constraint": null, "bias_constraint": null, "depth_multiplier": 1, "depthwise_initializer": {"class_name": "GlorotUniform", "config": {"seed": null}}, "pointwise_initializer": {"class_name": "GlorotUniform", "config": {"seed": null}}, "depthwise_regularizer": null, "pointwise_regularizer": null, "depthwise_constraint": null, "pointwise_constraint": null}, "name": "separable_conv_2_reduction_right1_stem_2", "inbound_nodes": [[["activation_15", 0, 0, {}]]]}, {"class_name": "Activation", "config": {"name": "activation_16", "trainable": false, "dtype": "float32", "activation": "relu"}, "name": "activation_16", "inbound_nodes": [[["adjust_bn_stem_2", 0, 0, {}]]]}, {"class_name": "BatchNormalization", "config": {"name": "separable_conv_2_bn_reduction_left1_stem_2", "trainable": false, "dtype": "float32", "axis": [3], "momentum": 0.9997, "epsilon": 0.001, "center": true, "scale": true, "beta_initializer": {"class_name": "Zeros", "config": {}}, "gamma_initializer": {"class_name": "Ones", "config": {}}, "moving_mean_initializer": {"class_name": "Zeros", "config": {}}, "moving_variance_initializer": {"class_name": "Ones", "config": {}}, "beta_regularizer": null, "gamma_regularizer": null, "beta_constraint": null, "gamma_constraint": null}, "name": "separable_conv_2_bn_reduction_left1_stem_2", "inbound_nodes": [[["separable_conv_2_reduction_left1_stem_2", 0, 0, {}]]]}, {"class_name": "BatchNormalization", "config": {"name": "separable_conv_2_bn_reduction_right1_stem_2", "trainable": false, "dtype": "float32", "axis": [3], "momentum": 0.9997, "epsilon": 0.001, "center": true, "scale": true, "beta_initializer": {"class_name": "Zeros", "config": {}}, "gamma_initializer": {"class_name": "Ones", "config": {}}, "moving_mean_initializer": {"class_name": "Zeros", "config": {}}, "moving_variance_initializer": {"class_name": "Ones", "config": {}}, "beta_regularizer": null, "gamma_regularizer": null, "beta_constraint": null, "gamma_constraint": null}, "name": "separable_conv_2_bn_reduction_right1_stem_2", "inbound_nodes": [[["separable_conv_2_reduction_right1_stem_2", 0, 0, {}]]]}, {"class_name": "ZeroPadding2D", "config": {"name": "separable_conv_1_pad_reduction_right2_stem_2", "trainable": false, "dtype": "float32", "padding": [[2, 3], [2, 3]], "data_format": "channels_last"}, "name": "separable_conv_1_pad_reduction_right2_stem_2", "inbound_nodes": [[["activation_16", 0, 0, {}]]]}, {"class_name": "Activation", "config": {"name": "activation_18", "trainable": false, "dtype": "float32", "activation": "relu"}, "name": "activation_18", "inbound_nodes": [[["adjust_bn_stem_2", 0, 0, {}]]]}, {"class_name": "Add", "config": {"name": "reduction_add_1_stem_2", "trainable": false, "dtype": "float32"}, "name": "reduction_add_1_stem_2", "inbound_nodes": [[["separable_conv_2_bn_reduction_left1_stem_2", 0, 0, {}], ["separable_conv_2_bn_reduction_right1_stem_2", 0, 0, {}]]]}, {"class_name": "SeparableConv2D", "config": {"name": "separable_conv_1_reduction_right2_stem_2", "trainable": false, "dtype": "float32", "filters": 84, "kernel_size": [7, 7], "strides": [2, 2], "padding": "valid", "data_format": "channels_last", "dilation_rate": [1, 1], "activation": "linear", "use_bias": false, "kernel_initializer": {"class_name": "VarianceScaling", "config": {"scale": 2.0, "mode": "fan_in", "distribution": "truncated_normal", "seed": null}}, "bias_initializer": {"class_name": "Zeros", "config": {}}, "kernel_regularizer": null, "bias_regularizer": null, "activity_regularizer": null, "kernel_constraint": null, "bias_constraint": null, "depth_multiplier": 1, "depthwise_initializer": {"class_name": "GlorotUniform", "config": {"seed": null}}, "pointwise_initializer": {"class_name": "GlorotUniform", "config": {"seed": null}}, "depthwise_regularizer": null, "pointwise_regularizer": null, "depthwise_constraint": null, "pointwise_constraint": null}, "name": "separable_conv_1_reduction_right2_stem_2", "inbound_nodes": [[["separable_conv_1_pad_reduction_right2_stem_2", 0, 0, {}]]]}, {"class_name": "ZeroPadding2D", "config": {"name": "separable_conv_1_pad_reduction_right3_stem_2", "trainable": false, "dtype": "float32", "padding": [[1, 2], [1, 2]], "data_format": "channels_last"}, "name": "separable_conv_1_pad_reduction_right3_stem_2", "inbound_nodes": [[["activation_18", 0, 0, {}]]]}, {"class_name": "Activation", "config": {"name": "activation_20", "trainable": false, "dtype": "float32", "activation": "relu"}, "name": "activation_20", "inbound_nodes": [[["reduction_add_1_stem_2", 0, 0, {}]]]}, {"class_name": "BatchNormalization", "config": {"name": "separable_conv_1_bn_reduction_right2_stem_2", "trainable": false, "dtype": "float32", "axis": [3], "momentum": 0.9997, "epsilon": 0.001, "center": true, "scale": true, "beta_initializer": {"class_name": "Zeros", "config": {}}, "gamma_initializer": {"class_name": "Ones", "config": {}}, "moving_mean_initializer": {"class_name": "Zeros", "config": {}}, "moving_variance_initializer": {"class_name": "Ones", "config": {}}, "beta_regularizer": null, "gamma_regularizer": null, "beta_constraint": null, "gamma_constraint": null}, "name": "separable_conv_1_bn_reduction_right2_stem_2", "inbound_nodes": [[["separable_conv_1_reduction_right2_stem_2", 0, 0, {}]]]}, {"class_name": "SeparableConv2D", "config": {"name": "separable_conv_1_reduction_right3_stem_2", "trainable": false, "dtype": "float32", "filters": 84, "kernel_size": [5, 5], "strides": [2, 2], "padding": "valid", "data_format": "channels_last", "dilation_rate": [1, 1], "activation": "linear", "use_bias": false, "kernel_initializer": {"class_name": "VarianceScaling", "config": {"scale": 2.0, "mode": "fan_in", "distribution": "truncated_normal", "seed": null}}, "bias_initializer": {"class_name": "Zeros", "config": {}}, "kernel_regularizer": null, "bias_regularizer": null, "activity_regularizer": null, "kernel_constraint": null, "bias_constraint": null, "depth_multiplier": 1, "depthwise_initializer": {"class_name": "GlorotUniform", "config": {"seed": null}}, "pointwise_initializer": {"class_name": "GlorotUniform", "config": {"seed": null}}, "depthwise_regularizer": null, "pointwise_regularizer": null, "depthwise_constraint": null, "pointwise_constraint": null}, "name": "separable_conv_1_reduction_right3_stem_2", "inbound_nodes": [[["separable_conv_1_pad_reduction_right3_stem_2", 0, 0, {}]]]}, {"class_name": "SeparableConv2D", "config": {"name": "separable_conv_1_reduction_left4_stem_2", "trainable": false, "dtype": "float32", "filters": 84, "kernel_size": [3, 3], "strides": [1, 1], "padding": "same", "data_format": "channels_last", "dilation_rate": [1, 1], "activation": "linear", "use_bias": false, "kernel_initializer": {"class_name": "VarianceScaling", "config": {"scale": 2.0, "mode": "fan_in", "distribution": "truncated_normal", "seed": null}}, "bias_initializer": {"class_name": "Zeros", "config": {}}, "kernel_regularizer": null, "bias_regularizer": null, "activity_regularizer": null, "kernel_constraint": null, "bias_constraint": null, "depth_multiplier": 1, "depthwise_initializer": {"class_name": "GlorotUniform", "config": {"seed": null}}, "pointwise_initializer": {"class_name": "GlorotUniform", "config": {"seed": null}}, "depthwise_regularizer": null, "pointwise_regularizer": null, "depthwise_constraint": null, "pointwise_constraint": null}, "name": "separable_conv_1_reduction_left4_stem_2", "inbound_nodes": [[["activation_20", 0, 0, {}]]]}, {"class_name": "Activation", "config": {"name": "activation_17", "trainable": false, "dtype": "float32", "activation": "relu"}, "name": "activation_17", "inbound_nodes": [[["separable_conv_1_bn_reduction_right2_stem_2", 0, 0, {}]]]}, {"class_name": "BatchNormalization", "config": {"name": "separable_conv_1_bn_reduction_right3_stem_2", "trainable": false, "dtype": "float32", "axis": [3], "momentum": 0.9997, "epsilon": 0.001, "center": true, "scale": true, "beta_initializer": {"class_name": "Zeros", "config": {}}, "gamma_initializer": {"class_name": "Ones", "config": {}}, "moving_mean_initializer": {"class_name": "Zeros", "config": {}}, "moving_variance_initializer": {"class_name": "Ones", "config": {}}, "beta_regularizer": null, "gamma_regularizer": null, "beta_constraint": null, "gamma_constraint": null}, "name": "separable_conv_1_bn_reduction_right3_stem_2", "inbound_nodes": [[["separable_conv_1_reduction_right3_stem_2", 0, 0, {}]]]}, {"class_name": "BatchNormalization", "config": {"name": "separable_conv_1_bn_reduction_left4_stem_2", "trainable": false, "dtype": "float32", "axis": [3], "momentum": 0.9997, "epsilon": 0.001, "center": true, "scale": true, "beta_initializer": {"class_name": "Zeros", "config": {}}, "gamma_initializer": {"class_name": "Ones", "config": {}}, "moving_mean_initializer": {"class_name": "Zeros", "config": {}}, "moving_variance_initializer": {"class_name": "Ones", "config": {}}, "beta_regularizer": null, "gamma_regularizer": null, "beta_constraint": null, "gamma_constraint": null}, "name": "separable_conv_1_bn_reduction_left4_stem_2", "inbound_nodes": [[["separable_conv_1_reduction_left4_stem_2", 0, 0, {}]]]}, {"class_name": "ZeroPadding2D", "config": {"name": "reduction_pad_1_stem_2", "trainable": false, "dtype": "float32", "padding": [[0, 1], [0, 1]], "data_format": "channels_last"}, "name": "reduction_pad_1_stem_2", "inbound_nodes": [[["reduction_bn_1_stem_2", 0, 0, {}]]]}, {"class_name": "SeparableConv2D", "config": {"name": "separable_conv_2_reduction_right2_stem_2", "trainable": false, "dtype": "float32", "filters": 84, "kernel_size": [7, 7], "strides": [1, 1], "padding": "same", "data_format": "channels_last", "dilation_rate": [1, 1], "activation": "linear", "use_bias": false, "kernel_initializer": {"class_name": "VarianceScaling", "config": {"scale": 2.0, "mode": "fan_in", "distribution": "truncated_normal", "seed": null}}, "bias_initializer": {"class_name": "Zeros", "config": {}}, "kernel_regularizer": null, "bias_regularizer": null, "activity_regularizer": null, "kernel_constraint": null, "bias_constraint": null, "depth_multiplier": 1, "depthwise_initializer": {"class_name": "GlorotUniform", "config": {"seed": null}}, "pointwise_initializer": {"class_name": "GlorotUniform", "config": {"seed": null}}, "depthwise_regularizer": null, "pointwise_regularizer": null, "depthwise_constraint": null, "pointwise_constraint": null}, "name": "separable_conv_2_reduction_right2_stem_2", "inbound_nodes": [[["activation_17", 0, 0, {}]]]}, {"class_name": "Activation", "config": {"name": "activation_19", "trainable": false, "dtype": "float32", "activation": "relu"}, "name": "activation_19", "inbound_nodes": [[["separable_conv_1_bn_reduction_right3_stem_2", 0, 0, {}]]]}, {"class_name": "Activation", "config": {"name": "activation_21", "trainable": false, "dtype": "float32", "activation": "relu"}, "name": "activation_21", "inbound_nodes": [[["separable_conv_1_bn_reduction_left4_stem_2", 0, 0, {}]]]}, {"class_name": "MaxPooling2D", "config": {"name": "reduction_left2_stem_2", "trainable": false, "dtype": "float32", "pool_size": [3, 3], "padding": "valid", "strides": [2, 2], "data_format": "channels_last"}, "name": "reduction_left2_stem_2", "inbound_nodes": [[["reduction_pad_1_stem_2", 0, 0, {}]]]}, {"class_name": "BatchNormalization", "config": {"name": "separable_conv_2_bn_reduction_right2_stem_2", "trainable": false, "dtype": "float32", "axis": [3], "momentum": 0.9997, "epsilon": 0.001, "center": true, "scale": true, "beta_initializer": {"class_name": "Zeros", "config": {}}, "gamma_initializer": {"class_name": "Ones", "config": {}}, "moving_mean_initializer": {"class_name": "Zeros", "config": {}}, "moving_variance_initializer": {"class_name": "Ones", "config": {}}, "beta_regularizer": null, "gamma_regularizer": null, "beta_constraint": null, "gamma_constraint": null}, "name": "separable_conv_2_bn_reduction_right2_stem_2", "inbound_nodes": [[["separable_conv_2_reduction_right2_stem_2", 0, 0, {}]]]}, {"class_name": "SeparableConv2D", "config": {"name": "separable_conv_2_reduction_right3_stem_2", "trainable": false, "dtype": "float32", "filters": 84, "kernel_size": [5, 5], "strides": [1, 1], "padding": "same", "data_format": "channels_last", "dilation_rate": [1, 1], "activation": "linear", "use_bias": false, "kernel_initializer": {"class_name": "VarianceScaling", "config": {"scale": 2.0, "mode": "fan_in", "distribution": "truncated_normal", "seed": null}}, "bias_initializer": {"class_name": "Zeros", "config": {}}, "kernel_regularizer": null, "bias_regularizer": null, "activity_regularizer": null, "kernel_constraint": null, "bias_constraint": null, "depth_multiplier": 1, "depthwise_initializer": {"class_name": "GlorotUniform", "config": {"seed": null}}, "pointwise_initializer": {"class_name": "GlorotUniform", "config": {"seed": null}}, "depthwise_regularizer": null, "pointwise_regularizer": null, "depthwise_constraint": null, "pointwise_constraint": null}, "name": "separable_conv_2_reduction_right3_stem_2", "inbound_nodes": [[["activation_19", 0, 0, {}]]]}, {"class_name": "SeparableConv2D", "config": {"name": "separable_conv_2_reduction_left4_stem_2", "trainable": false, "dtype": "float32", "filters": 84, "kernel_size": [3, 3], "strides": [1, 1], "padding": "same", "data_format": "channels_last", "dilation_rate": [1, 1], "activation": "linear", "use_bias": false, "kernel_initializer": {"class_name": "VarianceScaling", "config": {"scale": 2.0, "mode": "fan_in", "distribution": "truncated_normal", "seed": null}}, "bias_initializer": {"class_name": "Zeros", "config": {}}, "kernel_regularizer": null, "bias_regularizer": null, "activity_regularizer": null, "kernel_constraint": null, "bias_constraint": null, "depth_multiplier": 1, "depthwise_initializer": {"class_name": "GlorotUniform", "config": {"seed": null}}, "pointwise_initializer": {"class_name": "GlorotUniform", "config": {"seed": null}}, "depthwise_regularizer": null, "pointwise_regularizer": null, "depthwise_constraint": null, "pointwise_constraint": null}, "name": "separable_conv_2_reduction_left4_stem_2", "inbound_nodes": [[["activation_21", 0, 0, {}]]]}, {"class_name": "Activation", "config": {"name": "adjust_relu_1_0", "trainable": false, "dtype": "float32", "activation": "relu"}, "name": "adjust_relu_1_0", "inbound_nodes": [[["reduction_concat_stem_1", 0, 0, {}]]]}, {"class_name": "Add", "config": {"name": "reduction_add_2_stem_2", "trainable": false, "dtype": "float32"}, "name": "reduction_add_2_stem_2", "inbound_nodes": [[["reduction_left2_stem_2", 0, 0, {}], ["separable_conv_2_bn_reduction_right2_stem_2", 0, 0, {}]]]}, {"class_name": "AveragePooling2D", "config": {"name": "reduction_left3_stem_2", "trainable": false, "dtype": "float32", "pool_size": [3, 3], "padding": "valid", "strides": [2, 2], "data_format": "channels_last"}, "name": "reduction_left3_stem_2", "inbound_nodes": [[["reduction_pad_1_stem_2", 0, 0, {}]]]}, {"class_name": "BatchNormalization", "config": {"name": "separable_conv_2_bn_reduction_right3_stem_2", "trainable": false, "dtype": "float32", "axis": [3], "momentum": 0.9997, "epsilon": 0.001, "center": true, "scale": true, "beta_initializer": {"class_name": "Zeros", "config": {}}, "gamma_initializer": {"class_name": "Ones", "config": {}}, "moving_mean_initializer": {"class_name": "Zeros", "config": {}}, "moving_variance_initializer": {"class_name": "Ones", "config": {}}, "beta_regularizer": null, "gamma_regularizer": null, "beta_constraint": null, "gamma_constraint": null}, "name": "separable_conv_2_bn_reduction_right3_stem_2", "inbound_nodes": [[["separable_conv_2_reduction_right3_stem_2", 0, 0, {}]]]}, {"class_name": "AveragePooling2D", "config": {"name": "reduction_left4_stem_2", "trainable": false, "dtype": "float32", "pool_size": [3, 3], "padding": "same", "strides": [1, 1], "data_format": "channels_last"}, "name": "reduction_left4_stem_2", "inbound_nodes": [[["reduction_add_1_stem_2", 0, 0, {}]]]}, {"class_name": "BatchNormalization", "config": {"name": "separable_conv_2_bn_reduction_left4_stem_2", "trainable": false, "dtype": "float32", "axis": [3], "momentum": 0.9997, "epsilon": 0.001, "center": true, "scale": true, "beta_initializer": {"class_name": "Zeros", "config": {}}, "gamma_initializer": {"class_name": "Ones", "config": {}}, "moving_mean_initializer": {"class_name": "Zeros", "config": {}}, "moving_variance_initializer": {"class_name": "Ones", "config": {}}, "beta_regularizer": null, "gamma_regularizer": null, "beta_constraint": null, "gamma_constraint": null}, "name": "separable_conv_2_bn_reduction_left4_stem_2", "inbound_nodes": [[["separable_conv_2_reduction_left4_stem_2", 0, 0, {}]]]}, {"class_name": "MaxPooling2D", "config": {"name": "reduction_right5_stem_2", "trainable": false, "dtype": "float32", "pool_size": [3, 3], "padding": "valid", "strides": [2, 2], "data_format": "channels_last"}, "name": "reduction_right5_stem_2", "inbound_nodes": [[["reduction_pad_1_stem_2", 0, 0, {}]]]}, {"class_name": "ZeroPadding2D", "config": {"name": "zero_padding2d_1", "trainable": false, "dtype": "float32", "padding": [[0, 1], [0, 1]], "data_format": "channels_last"}, "name": "zero_padding2d_1", "inbound_nodes": [[["adjust_relu_1_0", 0, 0, {}]]]}, {"class_name": "Add", "config": {"name": "reduction_add3_stem_2", "trainable": false, "dtype": "float32"}, "name": "reduction_add3_stem_2", "inbound_nodes": [[["reduction_left3_stem_2", 0, 0, {}], ["separable_conv_2_bn_reduction_right3_stem_2", 0, 0, {}]]]}, {"class_name": "Add", "config": {"name": "add_1", "trainable": false, "dtype": "float32"}, "name": "add_1", "inbound_nodes": [[["reduction_add_2_stem_2", 0, 0, {}], ["reduction_left4_stem_2", 0, 0, {}]]]}, {"class_name": "Add", "config": {"name": "reduction_add4_stem_2", "trainable": false, "dtype": "float32"}, "name": "reduction_add4_stem_2", "inbound_nodes": [[["separable_conv_2_bn_reduction_left4_stem_2", 0, 0, {}], ["reduction_right5_stem_2", 0, 0, {}]]]}, {"class_name": "Cropping2D", "config": {"name": "cropping2d_1", "trainable": false, "dtype": "float32", "cropping": [[1, 0], [1, 0]], "data_format": "channels_last"}, "name": "cropping2d_1", "inbound_nodes": [[["zero_padding2d_1", 0, 0, {}]]]}, {"class_name": "Concatenate", "config": {"name": "reduction_concat_stem_2", "trainable": false, "dtype": "float32", "axis": -1}, "name": "reduction_concat_stem_2", "inbound_nodes": [[["reduction_add_2_stem_2", 0, 0, {}], ["reduction_add3_stem_2", 0, 0, {}], ["add_1", 0, 0, {}], ["reduction_add4_stem_2", 0, 0, {}]]]}, {"class_name": "AveragePooling2D", "config": {"name": "adjust_avg_pool_1_0", "trainable": false, "dtype": "float32", "pool_size": [1, 1], "padding": "valid", "strides": [2, 2], "data_format": "channels_last"}, "name": "adjust_avg_pool_1_0", "inbound_nodes": [[["adjust_relu_1_0", 0, 0, {}]]]}, {"class_name": "AveragePooling2D", "config": {"name": "adjust_avg_pool_2_0", "trainable": false, "dtype": "float32", "pool_size": [1, 1], "padding": "valid", "strides": [2, 2], "data_format": "channels_last"}, "name": "adjust_avg_pool_2_0", "inbound_nodes": [[["cropping2d_1", 0, 0, {}]]]}, {"class_name": "Conv2D", "config": {"name": "adjust_conv_1_0", "trainable": false, "dtype": "float32", "filters": 84, "kernel_size": [1, 1], "strides": [1, 1], "padding": "same", "data_format": "channels_last", "dilation_rate": [1, 1], "activation": "linear", "use_bias": false, "kernel_initializer": {"class_name": "VarianceScaling", "config": {"scale": 2.0, "mode": "fan_in", "distribution": "truncated_normal", "seed": null}}, "bias_initializer": {"class_name": "Zeros", "config": {}}, "kernel_regularizer": null, "bias_regularizer": null, "activity_regularizer": null, "kernel_constraint": null, "bias_constraint": null}, "name": "adjust_conv_1_0", "inbound_nodes": [[["adjust_avg_pool_1_0", 0, 0, {}]]]}, {"class_name": "Conv2D", "config": {"name": "adjust_conv_2_0", "trainable": false, "dtype": "float32", "filters": 84, "kernel_size": [1, 1], "strides": [1, 1], "padding": "same", "data_format": "channels_last", "dilation_rate": [1, 1], "activation": "linear", "use_bias": false, "kernel_initializer": {"class_name": "VarianceScaling", "config": {"scale": 2.0, "mode": "fan_in", "distribution": "truncated_normal", "seed": null}}, "bias_initializer": {"class_name": "Zeros", "config": {}}, "kernel_regularizer": null, "bias_regularizer": null, "activity_regularizer": null, "kernel_constraint": null, "bias_constraint": null}, "name": "adjust_conv_2_0", "inbound_nodes": [[["adjust_avg_pool_2_0", 0, 0, {}]]]}, {"class_name": "Activation", "config": {"name": "activation_22", "trainable": false, "dtype": "float32", "activation": "relu"}, "name": "activation_22", "inbound_nodes": [[["reduction_concat_stem_2", 0, 0, {}]]]}, {"class_name": "Concatenate", "config": {"name": "concatenate_1", "trainable": false, "dtype": "float32", "axis": -1}, "name": "concatenate_1", "inbound_nodes": [[["adjust_conv_1_0", 0, 0, {}], ["adjust_conv_2_0", 0, 0, {}]]]}, {"class_name": "Conv2D", "config": {"name": "normal_conv_1_0", "trainable": false, "dtype": "float32", "filters": 168, "kernel_size": [1, 1], "strides": [1, 1], "padding": "same", "data_format": "channels_last", "dilation_rate": [1, 1], "activation": "linear", "use_bias": false, "kernel_initializer": {"class_name": "VarianceScaling", "config": {"scale": 2.0, "mode": "fan_in", "distribution": "truncated_normal", "seed": null}}, "bias_initializer": {"class_name": "Zeros", "config": {}}, "kernel_regularizer": null, "bias_regularizer": null, "activity_regularizer": null, "kernel_constraint": null, "bias_constraint": null}, "name": "normal_conv_1_0", "inbound_nodes": [[["activation_22", 0, 0, {}]]]}, {"class_name": "BatchNormalization", "config": {"name": "adjust_bn_0", "trainable": false, "dtype": "float32", "axis": [3], "momentum": 0.9997, "epsilon": 0.001, "center": true, "scale": true, "beta_initializer": {"class_name": "Zeros", "config": {}}, "gamma_initializer": {"class_name": "Ones", "config": {}}, "moving_mean_initializer": {"class_name": "Zeros", "config": {}}, "moving_variance_initializer": {"class_name": "Ones", "config": {}}, "beta_regularizer": null, "gamma_regularizer": null, "beta_constraint": null, "gamma_constraint": null}, "name": "adjust_bn_0", "inbound_nodes": [[["concatenate_1", 0, 0, {}]]]}, {"class_name": "BatchNormalization", "config": {"name": "normal_bn_1_0", "trainable": false, "dtype": "float32", "axis": [3], "momentum": 0.9997, "epsilon": 0.001, "center": true, "scale": true, "beta_initializer": {"class_name": "Zeros", "config": {}}, "gamma_initializer": {"class_name": "Ones", "config": {}}, "moving_mean_initializer": {"class_name": "Zeros", "config": {}}, "moving_variance_initializer": {"class_name": "Ones", "config": {}}, "beta_regularizer": null, "gamma_regularizer": null, "beta_constraint": null, "gamma_constraint": null}, "name": "normal_bn_1_0", "inbound_nodes": [[["normal_conv_1_0", 0, 0, {}]]]}, {"class_name": "Activation", "config": {"name": "activation_23", "trainable": false, "dtype": "float32", "activation": "relu"}, "name": "activation_23", "inbound_nodes": [[["normal_bn_1_0", 0, 0, {}]]]}, {"class_name": "Activation", "config": {"name": "activation_25", "trainable": false, "dtype": "float32", "activation": "relu"}, "name": "activation_25", "inbound_nodes": [[["adjust_bn_0", 0, 0, {}]]]}, {"class_name": "Activation", "config": {"name": "activation_27", "trainable": false, "dtype": "float32", "activation": "relu"}, "name": "activation_27", "inbound_nodes": [[["adjust_bn_0", 0, 0, {}]]]}, {"class_name": "Activation", "config": {"name": "activation_29", "trainable": false, "dtype": "float32", "activation": "relu"}, "name": "activation_29", "inbound_nodes": [[["adjust_bn_0", 0, 0, {}]]]}, {"class_name": "Activation", "config": {"name": "activation_31", "trainable": false, "dtype": "float32", "activation": "relu"}, "name": "activation_31", "inbound_nodes": [[["normal_bn_1_0", 0, 0, {}]]]}, {"class_name": "SeparableConv2D", "config": {"name": "separable_conv_1_normal_left1_0", "trainable": false, "dtype": "float32", "filters": 168, "kernel_size": [5, 5], "strides": [1, 1], "padding": "same", "data_format": "channels_last", "dilation_rate": [1, 1], "activation": "linear", "use_bias": false, "kernel_initializer": {"class_name": "VarianceScaling", "config": {"scale": 2.0, "mode": "fan_in", "distribution": "truncated_normal", "seed": null}}, "bias_initializer": {"class_name": "Zeros", "config": {}}, "kernel_regularizer": null, "bias_regularizer": null, "activity_regularizer": null, "kernel_constraint": null, "bias_constraint": null, "depth_multiplier": 1, "depthwise_initializer": {"class_name": "GlorotUniform", "config": {"seed": null}}, "pointwise_initializer": {"class_name": "GlorotUniform", "config": {"seed": null}}, "depthwise_regularizer": null, "pointwise_regularizer": null, "depthwise_constraint": null, "pointwise_constraint": null}, "name": "separable_conv_1_normal_left1_0", "inbound_nodes": [[["activation_23", 0, 0, {}]]]}, {"class_name": "SeparableConv2D", "config": {"name": "separable_conv_1_normal_right1_0", "trainable": false, "dtype": "float32", "filters": 168, "kernel_size": [3, 3], "strides": [1, 1], "padding": "same", "data_format": "channels_last", "dilation_rate": [1, 1], "activation": "linear", "use_bias": false, "kernel_initializer": {"class_name": "VarianceScaling", "config": {"scale": 2.0, "mode": "fan_in", "distribution": "truncated_normal", "seed": null}}, "bias_initializer": {"class_name": "Zeros", "config": {}}, "kernel_regularizer": null, "bias_regularizer": null, "activity_regularizer": null, "kernel_constraint": null, "bias_constraint": null, "depth_multiplier": 1, "depthwise_initializer": {"class_name": "GlorotUniform", "config": {"seed": null}}, "pointwise_initializer": {"class_name": "GlorotUniform", "config": {"seed": null}}, "depthwise_regularizer": null, "pointwise_regularizer": null, "depthwise_constraint": null, "pointwise_constraint": null}, "name": "separable_conv_1_normal_right1_0", "inbound_nodes": [[["activation_25", 0, 0, {}]]]}, {"class_name": "SeparableConv2D", "config": {"name": "separable_conv_1_normal_left2_0", "trainable": false, "dtype": "float32", "filters": 168, "kernel_size": [5, 5], "strides": [1, 1], "padding": "same", "data_format": "channels_last", "dilation_rate": [1, 1], "activation": "linear", "use_bias": false, "kernel_initializer": {"class_name": "VarianceScaling", "config": {"scale": 2.0, "mode": "fan_in", "distribution": "truncated_normal", "seed": null}}, "bias_initializer": {"class_name": "Zeros", "config": {}}, "kernel_regularizer": null, "bias_regularizer": null, "activity_regularizer": null, "kernel_constraint": null, "bias_constraint": null, "depth_multiplier": 1, "depthwise_initializer": {"class_name": "GlorotUniform", "config": {"seed": null}}, "pointwise_initializer": {"class_name": "GlorotUniform", "config": {"seed": null}}, "depthwise_regularizer": null, "pointwise_regularizer": null, "depthwise_constraint": null, "pointwise_constraint": null}, "name": "separable_conv_1_normal_left2_0", "inbound_nodes": [[["activation_27", 0, 0, {}]]]}, {"class_name": "SeparableConv2D", "config": {"name": "separable_conv_1_normal_right2_0", "trainable": false, "dtype": "float32", "filters": 168, "kernel_size": [3, 3], "strides": [1, 1], "padding": "same", "data_format": "channels_last", "dilation_rate": [1, 1], "activation": "linear", "use_bias": false, "kernel_initializer": {"class_name": "VarianceScaling", "config": {"scale": 2.0, "mode": "fan_in", "distribution": "truncated_normal", "seed": null}}, "bias_initializer": {"class_name": "Zeros", "config": {}}, "kernel_regularizer": null, "bias_regularizer": null, "activity_regularizer": null, "kernel_constraint": null, "bias_constraint": null, "depth_multiplier": 1, "depthwise_initializer": {"class_name": "GlorotUniform", "config": {"seed": null}}, "pointwise_initializer": {"class_name": "GlorotUniform", "config": {"seed": null}}, "depthwise_regularizer": null, "pointwise_regularizer": null, "depthwise_constraint": null, "pointwise_constraint": null}, "name": "separable_conv_1_normal_right2_0", "inbound_nodes": [[["activation_29", 0, 0, {}]]]}, {"class_name": "SeparableConv2D", "config": {"name": "separable_conv_1_normal_left5_0", "trainable": false, "dtype": "float32", "filters": 168, "kernel_size": [3, 3], "strides": [1, 1], "padding": "same", "data_format": "channels_last", "dilation_rate": [1, 1], "activation": "linear", "use_bias": false, "kernel_initializer": {"class_name": "VarianceScaling", "config": {"scale": 2.0, "mode": "fan_in", "distribution": "truncated_normal", "seed": null}}, "bias_initializer": {"class_name": "Zeros", "config": {}}, "kernel_regularizer": null, "bias_regularizer": null, "activity_regularizer": null, "kernel_constraint": null, "bias_constraint": null, "depth_multiplier": 1, "depthwise_initializer": {"class_name": "GlorotUniform", "config": {"seed": null}}, "pointwise_initializer": {"class_name": "GlorotUniform", "config": {"seed": null}}, "depthwise_regularizer": null, "pointwise_regularizer": null, "depthwise_constraint": null, "pointwise_constraint": null}, "name": "separable_conv_1_normal_left5_0", "inbound_nodes": [[["activation_31", 0, 0, {}]]]}, {"class_name": "BatchNormalization", "config": {"name": "separable_conv_1_bn_normal_left1_0", "trainable": false, "dtype": "float32", "axis": [3], "momentum": 0.9997, "epsilon": 0.001, "center": true, "scale": true, "beta_initializer": {"class_name": "Zeros", "config": {}}, "gamma_initializer": {"class_name": "Ones", "config": {}}, "moving_mean_initializer": {"class_name": "Zeros", "config": {}}, "moving_variance_initializer": {"class_name": "Ones", "config": {}}, "beta_regularizer": null, "gamma_regularizer": null, "beta_constraint": null, "gamma_constraint": null}, "name": "separable_conv_1_bn_normal_left1_0", "inbound_nodes": [[["separable_conv_1_normal_left1_0", 0, 0, {}]]]}, {"class_name": "BatchNormalization", "config": {"name": "separable_conv_1_bn_normal_right1_0", "trainable": false, "dtype": "float32", "axis": [3], "momentum": 0.9997, "epsilon": 0.001, "center": true, "scale": true, "beta_initializer": {"class_name": "Zeros", "config": {}}, "gamma_initializer": {"class_name": "Ones", "config": {}}, "moving_mean_initializer": {"class_name": "Zeros", "config": {}}, "moving_variance_initializer": {"class_name": "Ones", "config": {}}, "beta_regularizer": null, "gamma_regularizer": null, "beta_constraint": null, "gamma_constraint": null}, "name": "separable_conv_1_bn_normal_right1_0", "inbound_nodes": [[["separable_conv_1_normal_right1_0", 0, 0, {}]]]}, {"class_name": "BatchNormalization", "config": {"name": "separable_conv_1_bn_normal_left2_0", "trainable": false, "dtype": "float32", "axis": [3], "momentum": 0.9997, "epsilon": 0.001, "center": true, "scale": true, "beta_initializer": {"class_name": "Zeros", "config": {}}, "gamma_initializer": {"class_name": "Ones", "config": {}}, "moving_mean_initializer": {"class_name": "Zeros", "config": {}}, "moving_variance_initializer": {"class_name": "Ones", "config": {}}, "beta_regularizer": null, "gamma_regularizer": null, "beta_constraint": null, "gamma_constraint": null}, "name": "separable_conv_1_bn_normal_left2_0", "inbound_nodes": [[["separable_conv_1_normal_left2_0", 0, 0, {}]]]}, {"class_name": "BatchNormalization", "config": {"name": "separable_conv_1_bn_normal_right2_0", "trainable": false, "dtype": "float32", "axis": [3], "momentum": 0.9997, "epsilon": 0.001, "center": true, "scale": true, "beta_initializer": {"class_name": "Zeros", "config": {}}, "gamma_initializer": {"class_name": "Ones", "config": {}}, "moving_mean_initializer": {"class_name": "Zeros", "config": {}}, "moving_variance_initializer": {"class_name": "Ones", "config": {}}, "beta_regularizer": null, "gamma_regularizer": null, "beta_constraint": null, "gamma_constraint": null}, "name": "separable_conv_1_bn_normal_right2_0", "inbound_nodes": [[["separable_conv_1_normal_right2_0", 0, 0, {}]]]}, {"class_name": "BatchNormalization", "config": {"name": "separable_conv_1_bn_normal_left5_0", "trainable": false, "dtype": "float32", "axis": [3], "momentum": 0.9997, "epsilon": 0.001, "center": true, "scale": true, "beta_initializer": {"class_name": "Zeros", "config": {}}, "gamma_initializer": {"class_name": "Ones", "config": {}}, "moving_mean_initializer": {"class_name": "Zeros", "config": {}}, "moving_variance_initializer": {"class_name": "Ones", "config": {}}, "beta_regularizer": null, "gamma_regularizer": null, "beta_constraint": null, "gamma_constraint": null}, "name": "separable_conv_1_bn_normal_left5_0", "inbound_nodes": [[["separable_conv_1_normal_left5_0", 0, 0, {}]]]}, {"class_name": "Activation", "config": {"name": "activation_24", "trainable": false, "dtype": "float32", "activation": "relu"}, "name": "activation_24", "inbound_nodes": [[["separable_conv_1_bn_normal_left1_0", 0, 0, {}]]]}, {"class_name": "Activation", "config": {"name": "activation_26", "trainable": false, "dtype": "float32", "activation": "relu"}, "name": "activation_26", "inbound_nodes": [[["separable_conv_1_bn_normal_right1_0", 0, 0, {}]]]}, {"class_name": "Activation", "config": {"name": "activation_28", "trainable": false, "dtype": "float32", "activation": "relu"}, "name": "activation_28", "inbound_nodes": [[["separable_conv_1_bn_normal_left2_0", 0, 0, {}]]]}, {"class_name": "Activation", "config": {"name": "activation_30", "trainable": false, "dtype": "float32", "activation": "relu"}, "name": "activation_30", "inbound_nodes": [[["separable_conv_1_bn_normal_right2_0", 0, 0, {}]]]}, {"class_name": "Activation", "config": {"name": "activation_32", "trainable": false, "dtype": "float32", "activation": "relu"}, "name": "activation_32", "inbound_nodes": [[["separable_conv_1_bn_normal_left5_0", 0, 0, {}]]]}, {"class_name": "SeparableConv2D", "config": {"name": "separable_conv_2_normal_left1_0", "trainable": false, "dtype": "float32", "filters": 168, "kernel_size": [5, 5], "strides": [1, 1], "padding": "same", "data_format": "channels_last", "dilation_rate": [1, 1], "activation": "linear", "use_bias": false, "kernel_initializer": {"class_name": "VarianceScaling", "config": {"scale": 2.0, "mode": "fan_in", "distribution": "truncated_normal", "seed": null}}, "bias_initializer": {"class_name": "Zeros", "config": {}}, "kernel_regularizer": null, "bias_regularizer": null, "activity_regularizer": null, "kernel_constraint": null, "bias_constraint": null, "depth_multiplier": 1, "depthwise_initializer": {"class_name": "GlorotUniform", "config": {"seed": null}}, "pointwise_initializer": {"class_name": "GlorotUniform", "config": {"seed": null}}, "depthwise_regularizer": null, "pointwise_regularizer": null, "depthwise_constraint": null, "pointwise_constraint": null}, "name": "separable_conv_2_normal_left1_0", "inbound_nodes": [[["activation_24", 0, 0, {}]]]}, {"class_name": "SeparableConv2D", "config": {"name": "separable_conv_2_normal_right1_0", "trainable": false, "dtype": "float32", "filters": 168, "kernel_size": [3, 3], "strides": [1, 1], "padding": "same", "data_format": "channels_last", "dilation_rate": [1, 1], "activation": "linear", "use_bias": false, "kernel_initializer": {"class_name": "VarianceScaling", "config": {"scale": 2.0, "mode": "fan_in", "distribution": "truncated_normal", "seed": null}}, "bias_initializer": {"class_name": "Zeros", "config": {}}, "kernel_regularizer": null, "bias_regularizer": null, "activity_regularizer": null, "kernel_constraint": null, "bias_constraint": null, "depth_multiplier": 1, "depthwise_initializer": {"class_name": "GlorotUniform", "config": {"seed": null}}, "pointwise_initializer": {"class_name": "GlorotUniform", "config": {"seed": null}}, "depthwise_regularizer": null, "pointwise_regularizer": null, "depthwise_constraint": null, "pointwise_constraint": null}, "name": "separable_conv_2_normal_right1_0", "inbound_nodes": [[["activation_26", 0, 0, {}]]]}, {"class_name": "SeparableConv2D", "config": {"name": "separable_conv_2_normal_left2_0", "trainable": false, "dtype": "float32", "filters": 168, "kernel_size": [5, 5], "strides": [1, 1], "padding": "same", "data_format": "channels_last", "dilation_rate": [1, 1], "activation": "linear", "use_bias": false, "kernel_initializer": {"class_name": "VarianceScaling", "config": {"scale": 2.0, "mode": "fan_in", "distribution": "truncated_normal", "seed": null}}, "bias_initializer": {"class_name": "Zeros", "config": {}}, "kernel_regularizer": null, "bias_regularizer": null, "activity_regularizer": null, "kernel_constraint": null, "bias_constraint": null, "depth_multiplier": 1, "depthwise_initializer": {"class_name": "GlorotUniform", "config": {"seed": null}}, "pointwise_initializer": {"class_name": "GlorotUniform", "config": {"seed": null}}, "depthwise_regularizer": null, "pointwise_regularizer": null, "depthwise_constraint": null, "pointwise_constraint": null}, "name": "separable_conv_2_normal_left2_0", "inbound_nodes": [[["activation_28", 0, 0, {}]]]}, {"class_name": "SeparableConv2D", "config": {"name": "separable_conv_2_normal_right2_0", "trainable": false, "dtype": "float32", "filters": 168, "kernel_size": [3, 3], "strides": [1, 1], "padding": "same", "data_format": "channels_last", "dilation_rate": [1, 1], "activation": "linear", "use_bias": false, "kernel_initializer": {"class_name": "VarianceScaling", "config": {"scale": 2.0, "mode": "fan_in", "distribution": "truncated_normal", "seed": null}}, "bias_initializer": {"class_name": "Zeros", "config": {}}, "kernel_regularizer": null, "bias_regularizer": null, "activity_regularizer": null, "kernel_constraint": null, "bias_constraint": null, "depth_multiplier": 1, "depthwise_initializer": {"class_name": "GlorotUniform", "config": {"seed": null}}, "pointwise_initializer": {"class_name": "GlorotUniform", "config": {"seed": null}}, "depthwise_regularizer": null, "pointwise_regularizer": null, "depthwise_constraint": null, "pointwise_constraint": null}, "name": "separable_conv_2_normal_right2_0", "inbound_nodes": [[["activation_30", 0, 0, {}]]]}, {"class_name": "SeparableConv2D", "config": {"name": "separable_conv_2_normal_left5_0", "trainable": false, "dtype": "float32", "filters": 168, "kernel_size": [3, 3], "strides": [1, 1], "padding": "same", "data_format": "channels_last", "dilation_rate": [1, 1], "activation": "linear", "use_bias": false, "kernel_initializer": {"class_name": "VarianceScaling", "config": {"scale": 2.0, "mode": "fan_in", "distribution": "truncated_normal", "seed": null}}, "bias_initializer": {"class_name": "Zeros", "config": {}}, "kernel_regularizer": null, "bias_regularizer": null, "activity_regularizer": null, "kernel_constraint": null, "bias_constraint": null, "depth_multiplier": 1, "depthwise_initializer": {"class_name": "GlorotUniform", "config": {"seed": null}}, "pointwise_initializer": {"class_name": "GlorotUniform", "config": {"seed": null}}, "depthwise_regularizer": null, "pointwise_regularizer": null, "depthwise_constraint": null, "pointwise_constraint": null}, "name": "separable_conv_2_normal_left5_0", "inbound_nodes": [[["activation_32", 0, 0, {}]]]}, {"class_name": "BatchNormalization", "config": {"name": "separable_conv_2_bn_normal_left1_0", "trainable": false, "dtype": "float32", "axis": [3], "momentum": 0.9997, "epsilon": 0.001, "center": true, "scale": true, "beta_initializer": {"class_name": "Zeros", "config": {}}, "gamma_initializer": {"class_name": "Ones", "config": {}}, "moving_mean_initializer": {"class_name": "Zeros", "config": {}}, "moving_variance_initializer": {"class_name": "Ones", "config": {}}, "beta_regularizer": null, "gamma_regularizer": null, "beta_constraint": null, "gamma_constraint": null}, "name": "separable_conv_2_bn_normal_left1_0", "inbound_nodes": [[["separable_conv_2_normal_left1_0", 0, 0, {}]]]}, {"class_name": "BatchNormalization", "config": {"name": "separable_conv_2_bn_normal_right1_0", "trainable": false, "dtype": "float32", "axis": [3], "momentum": 0.9997, "epsilon": 0.001, "center": true, "scale": true, "beta_initializer": {"class_name": "Zeros", "config": {}}, "gamma_initializer": {"class_name": "Ones", "config": {}}, "moving_mean_initializer": {"class_name": "Zeros", "config": {}}, "moving_variance_initializer": {"class_name": "Ones", "config": {}}, "beta_regularizer": null, "gamma_regularizer": null, "beta_constraint": null, "gamma_constraint": null}, "name": "separable_conv_2_bn_normal_right1_0", "inbound_nodes": [[["separable_conv_2_normal_right1_0", 0, 0, {}]]]}, {"class_name": "BatchNormalization", "config": {"name": "separable_conv_2_bn_normal_left2_0", "trainable": false, "dtype": "float32", "axis": [3], "momentum": 0.9997, "epsilon": 0.001, "center": true, "scale": true, "beta_initializer": {"class_name": "Zeros", "config": {}}, "gamma_initializer": {"class_name": "Ones", "config": {}}, "moving_mean_initializer": {"class_name": "Zeros", "config": {}}, "moving_variance_initializer": {"class_name": "Ones", "config": {}}, "beta_regularizer": null, "gamma_regularizer": null, "beta_constraint": null, "gamma_constraint": null}, "name": "separable_conv_2_bn_normal_left2_0", "inbound_nodes": [[["separable_conv_2_normal_left2_0", 0, 0, {}]]]}, {"class_name": "BatchNormalization", "config": {"name": "separable_conv_2_bn_normal_right2_0", "trainable": false, "dtype": "float32", "axis": [3], "momentum": 0.9997, "epsilon": 0.001, "center": true, "scale": true, "beta_initializer": {"class_name": "Zeros", "config": {}}, "gamma_initializer": {"class_name": "Ones", "config": {}}, "moving_mean_initializer": {"class_name": "Zeros", "config": {}}, "moving_variance_initializer": {"class_name": "Ones", "config": {}}, "beta_regularizer": null, "gamma_regularizer": null, "beta_constraint": null, "gamma_constraint": null}, "name": "separable_conv_2_bn_normal_right2_0", "inbound_nodes": [[["separable_conv_2_normal_right2_0", 0, 0, {}]]]}, {"class_name": "AveragePooling2D", "config": {"name": "normal_left3_0", "trainable": false, "dtype": "float32", "pool_size": [3, 3], "padding": "same", "strides": [1, 1], "data_format": "channels_last"}, "name": "normal_left3_0", "inbound_nodes": [[["normal_bn_1_0", 0, 0, {}]]]}, {"class_name": "AveragePooling2D", "config": {"name": "normal_left4_0", "trainable": false, "dtype": "float32", "pool_size": [3, 3], "padding": "same", "strides": [1, 1], "data_format": "channels_last"}, "name": "normal_left4_0", "inbound_nodes": [[["adjust_bn_0", 0, 0, {}]]]}, {"class_name": "AveragePooling2D", "config": {"name": "normal_right4_0", "trainable": false, "dtype": "float32", "pool_size": [3, 3], "padding": "same", "strides": [1, 1], "data_format": "channels_last"}, "name": "normal_right4_0", "inbound_nodes": [[["adjust_bn_0", 0, 0, {}]]]}, {"class_name": "BatchNormalization", "config": {"name": "separable_conv_2_bn_normal_left5_0", "trainable": false, "dtype": "float32", "axis": [3], "momentum": 0.9997, "epsilon": 0.001, "center": true, "scale": true, "beta_initializer": {"class_name": "Zeros", "config": {}}, "gamma_initializer": {"class_name": "Ones", "config": {}}, "moving_mean_initializer": {"class_name": "Zeros", "config": {}}, "moving_variance_initializer": {"class_name": "Ones", "config": {}}, "beta_regularizer": null, "gamma_regularizer": null, "beta_constraint": null, "gamma_constraint": null}, "name": "separable_conv_2_bn_normal_left5_0", "inbound_nodes": [[["separable_conv_2_normal_left5_0", 0, 0, {}]]]}, {"class_name": "Add", "config": {"name": "normal_add_1_0", "trainable": false, "dtype": "float32"}, "name": "normal_add_1_0", "inbound_nodes": [[["separable_conv_2_bn_normal_left1_0", 0, 0, {}], ["separable_conv_2_bn_normal_right1_0", 0, 0, {}]]]}, {"class_name": "Add", "config": {"name": "normal_add_2_0", "trainable": false, "dtype": "float32"}, "name": "normal_add_2_0", "inbound_nodes": [[["separable_conv_2_bn_normal_left2_0", 0, 0, {}], ["separable_conv_2_bn_normal_right2_0", 0, 0, {}]]]}, {"class_name": "Add", "config": {"name": "normal_add_3_0", "trainable": false, "dtype": "float32"}, "name": "normal_add_3_0", "inbound_nodes": [[["normal_left3_0", 0, 0, {}], ["adjust_bn_0", 0, 0, {}]]]}, {"class_name": "Add", "config": {"name": "normal_add_4_0", "trainable": false, "dtype": "float32"}, "name": "normal_add_4_0", "inbound_nodes": [[["normal_left4_0", 0, 0, {}], ["normal_right4_0", 0, 0, {}]]]}, {"class_name": "Add", "config": {"name": "normal_add_5_0", "trainable": false, "dtype": "float32"}, "name": "normal_add_5_0", "inbound_nodes": [[["separable_conv_2_bn_normal_left5_0", 0, 0, {}], ["normal_bn_1_0", 0, 0, {}]]]}, {"class_name": "Concatenate", "config": {"name": "normal_concat_0", "trainable": false, "dtype": "float32", "axis": -1}, "name": "normal_concat_0", "inbound_nodes": [[["adjust_bn_0", 0, 0, {}], ["normal_add_1_0", 0, 0, {}], ["normal_add_2_0", 0, 0, {}], ["normal_add_3_0", 0, 0, {}], ["normal_add_4_0", 0, 0, {}], ["normal_add_5_0", 0, 0, {}]]]}, {"class_name": "Activation", "config": {"name": "activation_33", "trainable": false, "dtype": "float32", "activation": "relu"}, "name": "activation_33", "inbound_nodes": [[["reduction_concat_stem_2", 0, 0, {}]]]}, {"class_name": "Activation", "config": {"name": "activation_34", "trainable": false, "dtype": "float32", "activation": "relu"}, "name": "activation_34", "inbound_nodes": [[["normal_concat_0", 0, 0, {}]]]}, {"class_name": "Conv2D", "config": {"name": "adjust_conv_projection_1", "trainable": false, "dtype": "float32", "filters": 168, "kernel_size": [1, 1], "strides": [1, 1], "padding": "same", "data_format": "channels_last", "dilation_rate": [1, 1], "activation": "linear", "use_bias": false, "kernel_initializer": {"class_name": "VarianceScaling", "config": {"scale": 2.0, "mode": "fan_in", "distribution": "truncated_normal", "seed": null}}, "bias_initializer": {"class_name": "Zeros", "config": {}}, "kernel_regularizer": null, "bias_regularizer": null, "activity_regularizer": null, "kernel_constraint": null, "bias_constraint": null}, "name": "adjust_conv_projection_1", "inbound_nodes": [[["activation_33", 0, 0, {}]]]}, {"class_name": "Conv2D", "config": {"name": "normal_conv_1_1", "trainable": false, "dtype": "float32", "filters": 168, "kernel_size": [1, 1], "strides": [1, 1], "padding": "same", "data_format": "channels_last", "dilation_rate": [1, 1], "activation": "linear", "use_bias": false, "kernel_initializer": {"class_name": "VarianceScaling", "config": {"scale": 2.0, "mode": "fan_in", "distribution": "truncated_normal", "seed": null}}, "bias_initializer": {"class_name": "Zeros", "config": {}}, "kernel_regularizer": null, "bias_regularizer": null, "activity_regularizer": null, "kernel_constraint": null, "bias_constraint": null}, "name": "normal_conv_1_1", "inbound_nodes": [[["activation_34", 0, 0, {}]]]}, {"class_name": "BatchNormalization", "config": {"name": "adjust_bn_1", "trainable": false, "dtype": "float32", "axis": [3], "momentum": 0.9997, "epsilon": 0.001, "center": true, "scale": true, "beta_initializer": {"class_name": "Zeros", "config": {}}, "gamma_initializer": {"class_name": "Ones", "config": {}}, "moving_mean_initializer": {"class_name": "Zeros", "config": {}}, "moving_variance_initializer": {"class_name": "Ones", "config": {}}, "beta_regularizer": null, "gamma_regularizer": null, "beta_constraint": null, "gamma_constraint": null}, "name": "adjust_bn_1", "inbound_nodes": [[["adjust_conv_projection_1", 0, 0, {}]]]}, {"class_name": "BatchNormalization", "config": {"name": "normal_bn_1_1", "trainable": false, "dtype": "float32", "axis": [3], "momentum": 0.9997, "epsilon": 0.001, "center": true, "scale": true, "beta_initializer": {"class_name": "Zeros", "config": {}}, "gamma_initializer": {"class_name": "Ones", "config": {}}, "moving_mean_initializer": {"class_name": "Zeros", "config": {}}, "moving_variance_initializer": {"class_name": "Ones", "config": {}}, "beta_regularizer": null, "gamma_regularizer": null, "beta_constraint": null, "gamma_constraint": null}, "name": "normal_bn_1_1", "inbound_nodes": [[["normal_conv_1_1", 0, 0, {}]]]}, {"class_name": "Activation", "config": {"name": "activation_35", "trainable": false, "dtype": "float32", "activation": "relu"}, "name": "activation_35", "inbound_nodes": [[["normal_bn_1_1", 0, 0, {}]]]}, {"class_name": "Activation", "config": {"name": "activation_37", "trainable": false, "dtype": "float32", "activation": "relu"}, "name": "activation_37", "inbound_nodes": [[["adjust_bn_1", 0, 0, {}]]]}, {"class_name": "Activation", "config": {"name": "activation_39", "trainable": false, "dtype": "float32", "activation": "relu"}, "name": "activation_39", "inbound_nodes": [[["adjust_bn_1", 0, 0, {}]]]}, {"class_name": "Activation", "config": {"name": "activation_41", "trainable": false, "dtype": "float32", "activation": "relu"}, "name": "activation_41", "inbound_nodes": [[["adjust_bn_1", 0, 0, {}]]]}, {"class_name": "Activation", "config": {"name": "activation_43", "trainable": false, "dtype": "float32", "activation": "relu"}, "name": "activation_43", "inbound_nodes": [[["normal_bn_1_1", 0, 0, {}]]]}, {"class_name": "SeparableConv2D", "config": {"name": "separable_conv_1_normal_left1_1", "trainable": false, "dtype": "float32", "filters": 168, "kernel_size": [5, 5], "strides": [1, 1], "padding": "same", "data_format": "channels_last", "dilation_rate": [1, 1], "activation": "linear", "use_bias": false, "kernel_initializer": {"class_name": "VarianceScaling", "config": {"scale": 2.0, "mode": "fan_in", "distribution": "truncated_normal", "seed": null}}, "bias_initializer": {"class_name": "Zeros", "config": {}}, "kernel_regularizer": null, "bias_regularizer": null, "activity_regularizer": null, "kernel_constraint": null, "bias_constraint": null, "depth_multiplier": 1, "depthwise_initializer": {"class_name": "GlorotUniform", "config": {"seed": null}}, "pointwise_initializer": {"class_name": "GlorotUniform", "config": {"seed": null}}, "depthwise_regularizer": null, "pointwise_regularizer": null, "depthwise_constraint": null, "pointwise_constraint": null}, "name": "separable_conv_1_normal_left1_1", "inbound_nodes": [[["activation_35", 0, 0, {}]]]}, {"class_name": "SeparableConv2D", "config": {"name": "separable_conv_1_normal_right1_1", "trainable": false, "dtype": "float32", "filters": 168, "kernel_size": [3, 3], "strides": [1, 1], "padding": "same", "data_format": "channels_last", "dilation_rate": [1, 1], "activation": "linear", "use_bias": false, "kernel_initializer": {"class_name": "VarianceScaling", "config": {"scale": 2.0, "mode": "fan_in", "distribution": "truncated_normal", "seed": null}}, "bias_initializer": {"class_name": "Zeros", "config": {}}, "kernel_regularizer": null, "bias_regularizer": null, "activity_regularizer": null, "kernel_constraint": null, "bias_constraint": null, "depth_multiplier": 1, "depthwise_initializer": {"class_name": "GlorotUniform", "config": {"seed": null}}, "pointwise_initializer": {"class_name": "GlorotUniform", "config": {"seed": null}}, "depthwise_regularizer": null, "pointwise_regularizer": null, "depthwise_constraint": null, "pointwise_constraint": null}, "name": "separable_conv_1_normal_right1_1", "inbound_nodes": [[["activation_37", 0, 0, {}]]]}, {"class_name": "SeparableConv2D", "config": {"name": "separable_conv_1_normal_left2_1", "trainable": false, "dtype": "float32", "filters": 168, "kernel_size": [5, 5], "strides": [1, 1], "padding": "same", "data_format": "channels_last", "dilation_rate": [1, 1], "activation": "linear", "use_bias": false, "kernel_initializer": {"class_name": "VarianceScaling", "config": {"scale": 2.0, "mode": "fan_in", "distribution": "truncated_normal", "seed": null}}, "bias_initializer": {"class_name": "Zeros", "config": {}}, "kernel_regularizer": null, "bias_regularizer": null, "activity_regularizer": null, "kernel_constraint": null, "bias_constraint": null, "depth_multiplier": 1, "depthwise_initializer": {"class_name": "GlorotUniform", "config": {"seed": null}}, "pointwise_initializer": {"class_name": "GlorotUniform", "config": {"seed": null}}, "depthwise_regularizer": null, "pointwise_regularizer": null, "depthwise_constraint": null, "pointwise_constraint": null}, "name": "separable_conv_1_normal_left2_1", "inbound_nodes": [[["activation_39", 0, 0, {}]]]}, {"class_name": "SeparableConv2D", "config": {"name": "separable_conv_1_normal_right2_1", "trainable": false, "dtype": "float32", "filters": 168, "kernel_size": [3, 3], "strides": [1, 1], "padding": "same", "data_format": "channels_last", "dilation_rate": [1, 1], "activation": "linear", "use_bias": false, "kernel_initializer": {"class_name": "VarianceScaling", "config": {"scale": 2.0, "mode": "fan_in", "distribution": "truncated_normal", "seed": null}}, "bias_initializer": {"class_name": "Zeros", "config": {}}, "kernel_regularizer": null, "bias_regularizer": null, "activity_regularizer": null, "kernel_constraint": null, "bias_constraint": null, "depth_multiplier": 1, "depthwise_initializer": {"class_name": "GlorotUniform", "config": {"seed": null}}, "pointwise_initializer": {"class_name": "GlorotUniform", "config": {"seed": null}}, "depthwise_regularizer": null, "pointwise_regularizer": null, "depthwise_constraint": null, "pointwise_constraint": null}, "name": "separable_conv_1_normal_right2_1", "inbound_nodes": [[["activation_41", 0, 0, {}]]]}, {"class_name": "SeparableConv2D", "config": {"name": "separable_conv_1_normal_left5_1", "trainable": false, "dtype": "float32", "filters": 168, "kernel_size": [3, 3], "strides": [1, 1], "padding": "same", "data_format": "channels_last", "dilation_rate": [1, 1], "activation": "linear", "use_bias": false, "kernel_initializer": {"class_name": "VarianceScaling", "config": {"scale": 2.0, "mode": "fan_in", "distribution": "truncated_normal", "seed": null}}, "bias_initializer": {"class_name": "Zeros", "config": {}}, "kernel_regularizer": null, "bias_regularizer": null, "activity_regularizer": null, "kernel_constraint": null, "bias_constraint": null, "depth_multiplier": 1, "depthwise_initializer": {"class_name": "GlorotUniform", "config": {"seed": null}}, "pointwise_initializer": {"class_name": "GlorotUniform", "config": {"seed": null}}, "depthwise_regularizer": null, "pointwise_regularizer": null, "depthwise_constraint": null, "pointwise_constraint": null}, "name": "separable_conv_1_normal_left5_1", "inbound_nodes": [[["activation_43", 0, 0, {}]]]}, {"class_name": "BatchNormalization", "config": {"name": "separable_conv_1_bn_normal_left1_1", "trainable": false, "dtype": "float32", "axis": [3], "momentum": 0.9997, "epsilon": 0.001, "center": true, "scale": true, "beta_initializer": {"class_name": "Zeros", "config": {}}, "gamma_initializer": {"class_name": "Ones", "config": {}}, "moving_mean_initializer": {"class_name": "Zeros", "config": {}}, "moving_variance_initializer": {"class_name": "Ones", "config": {}}, "beta_regularizer": null, "gamma_regularizer": null, "beta_constraint": null, "gamma_constraint": null}, "name": "separable_conv_1_bn_normal_left1_1", "inbound_nodes": [[["separable_conv_1_normal_left1_1", 0, 0, {}]]]}, {"class_name": "BatchNormalization", "config": {"name": "separable_conv_1_bn_normal_right1_1", "trainable": false, "dtype": "float32", "axis": [3], "momentum": 0.9997, "epsilon": 0.001, "center": true, "scale": true, "beta_initializer": {"class_name": "Zeros", "config": {}}, "gamma_initializer": {"class_name": "Ones", "config": {}}, "moving_mean_initializer": {"class_name": "Zeros", "config": {}}, "moving_variance_initializer": {"class_name": "Ones", "config": {}}, "beta_regularizer": null, "gamma_regularizer": null, "beta_constraint": null, "gamma_constraint": null}, "name": "separable_conv_1_bn_normal_right1_1", "inbound_nodes": [[["separable_conv_1_normal_right1_1", 0, 0, {}]]]}, {"class_name": "BatchNormalization", "config": {"name": "separable_conv_1_bn_normal_left2_1", "trainable": false, "dtype": "float32", "axis": [3], "momentum": 0.9997, "epsilon": 0.001, "center": true, "scale": true, "beta_initializer": {"class_name": "Zeros", "config": {}}, "gamma_initializer": {"class_name": "Ones", "config": {}}, "moving_mean_initializer": {"class_name": "Zeros", "config": {}}, "moving_variance_initializer": {"class_name": "Ones", "config": {}}, "beta_regularizer": null, "gamma_regularizer": null, "beta_constraint": null, "gamma_constraint": null}, "name": "separable_conv_1_bn_normal_left2_1", "inbound_nodes": [[["separable_conv_1_normal_left2_1", 0, 0, {}]]]}, {"class_name": "BatchNormalization", "config": {"name": "separable_conv_1_bn_normal_right2_1", "trainable": false, "dtype": "float32", "axis": [3], "momentum": 0.9997, "epsilon": 0.001, "center": true, "scale": true, "beta_initializer": {"class_name": "Zeros", "config": {}}, "gamma_initializer": {"class_name": "Ones", "config": {}}, "moving_mean_initializer": {"class_name": "Zeros", "config": {}}, "moving_variance_initializer": {"class_name": "Ones", "config": {}}, "beta_regularizer": null, "gamma_regularizer": null, "beta_constraint": null, "gamma_constraint": null}, "name": "separable_conv_1_bn_normal_right2_1", "inbound_nodes": [[["separable_conv_1_normal_right2_1", 0, 0, {}]]]}, {"class_name": "BatchNormalization", "config": {"name": "separable_conv_1_bn_normal_left5_1", "trainable": false, "dtype": "float32", "axis": [3], "momentum": 0.9997, "epsilon": 0.001, "center": true, "scale": true, "beta_initializer": {"class_name": "Zeros", "config": {}}, "gamma_initializer": {"class_name": "Ones", "config": {}}, "moving_mean_initializer": {"class_name": "Zeros", "config": {}}, "moving_variance_initializer": {"class_name": "Ones", "config": {}}, "beta_regularizer": null, "gamma_regularizer": null, "beta_constraint": null, "gamma_constraint": null}, "name": "separable_conv_1_bn_normal_left5_1", "inbound_nodes": [[["separable_conv_1_normal_left5_1", 0, 0, {}]]]}, {"class_name": "Activation", "config": {"name": "activation_36", "trainable": false, "dtype": "float32", "activation": "relu"}, "name": "activation_36", "inbound_nodes": [[["separable_conv_1_bn_normal_left1_1", 0, 0, {}]]]}, {"class_name": "Activation", "config": {"name": "activation_38", "trainable": false, "dtype": "float32", "activation": "relu"}, "name": "activation_38", "inbound_nodes": [[["separable_conv_1_bn_normal_right1_1", 0, 0, {}]]]}, {"class_name": "Activation", "config": {"name": "activation_40", "trainable": false, "dtype": "float32", "activation": "relu"}, "name": "activation_40", "inbound_nodes": [[["separable_conv_1_bn_normal_left2_1", 0, 0, {}]]]}, {"class_name": "Activation", "config": {"name": "activation_42", "trainable": false, "dtype": "float32", "activation": "relu"}, "name": "activation_42", "inbound_nodes": [[["separable_conv_1_bn_normal_right2_1", 0, 0, {}]]]}, {"class_name": "Activation", "config": {"name": "activation_44", "trainable": false, "dtype": "float32", "activation": "relu"}, "name": "activation_44", "inbound_nodes": [[["separable_conv_1_bn_normal_left5_1", 0, 0, {}]]]}, {"class_name": "SeparableConv2D", "config": {"name": "separable_conv_2_normal_left1_1", "trainable": false, "dtype": "float32", "filters": 168, "kernel_size": [5, 5], "strides": [1, 1], "padding": "same", "data_format": "channels_last", "dilation_rate": [1, 1], "activation": "linear", "use_bias": false, "kernel_initializer": {"class_name": "VarianceScaling", "config": {"scale": 2.0, "mode": "fan_in", "distribution": "truncated_normal", "seed": null}}, "bias_initializer": {"class_name": "Zeros", "config": {}}, "kernel_regularizer": null, "bias_regularizer": null, "activity_regularizer": null, "kernel_constraint": null, "bias_constraint": null, "depth_multiplier": 1, "depthwise_initializer": {"class_name": "GlorotUniform", "config": {"seed": null}}, "pointwise_initializer": {"class_name": "GlorotUniform", "config": {"seed": null}}, "depthwise_regularizer": null, "pointwise_regularizer": null, "depthwise_constraint": null, "pointwise_constraint": null}, "name": "separable_conv_2_normal_left1_1", "inbound_nodes": [[["activation_36", 0, 0, {}]]]}, {"class_name": "SeparableConv2D", "config": {"name": "separable_conv_2_normal_right1_1", "trainable": false, "dtype": "float32", "filters": 168, "kernel_size": [3, 3], "strides": [1, 1], "padding": "same", "data_format": "channels_last", "dilation_rate": [1, 1], "activation": "linear", "use_bias": false, "kernel_initializer": {"class_name": "VarianceScaling", "config": {"scale": 2.0, "mode": "fan_in", "distribution": "truncated_normal", "seed": null}}, "bias_initializer": {"class_name": "Zeros", "config": {}}, "kernel_regularizer": null, "bias_regularizer": null, "activity_regularizer": null, "kernel_constraint": null, "bias_constraint": null, "depth_multiplier": 1, "depthwise_initializer": {"class_name": "GlorotUniform", "config": {"seed": null}}, "pointwise_initializer": {"class_name": "GlorotUniform", "config": {"seed": null}}, "depthwise_regularizer": null, "pointwise_regularizer": null, "depthwise_constraint": null, "pointwise_constraint": null}, "name": "separable_conv_2_normal_right1_1", "inbound_nodes": [[["activation_38", 0, 0, {}]]]}, {"class_name": "SeparableConv2D", "config": {"name": "separable_conv_2_normal_left2_1", "trainable": false, "dtype": "float32", "filters": 168, "kernel_size": [5, 5], "strides": [1, 1], "padding": "same", "data_format": "channels_last", "dilation_rate": [1, 1], "activation": "linear", "use_bias": false, "kernel_initializer": {"class_name": "VarianceScaling", "config": {"scale": 2.0, "mode": "fan_in", "distribution": "truncated_normal", "seed": null}}, "bias_initializer": {"class_name": "Zeros", "config": {}}, "kernel_regularizer": null, "bias_regularizer": null, "activity_regularizer": null, "kernel_constraint": null, "bias_constraint": null, "depth_multiplier": 1, "depthwise_initializer": {"class_name": "GlorotUniform", "config": {"seed": null}}, "pointwise_initializer": {"class_name": "GlorotUniform", "config": {"seed": null}}, "depthwise_regularizer": null, "pointwise_regularizer": null, "depthwise_constraint": null, "pointwise_constraint": null}, "name": "separable_conv_2_normal_left2_1", "inbound_nodes": [[["activation_40", 0, 0, {}]]]}, {"class_name": "SeparableConv2D", "config": {"name": "separable_conv_2_normal_right2_1", "trainable": false, "dtype": "float32", "filters": 168, "kernel_size": [3, 3], "strides": [1, 1], "padding": "same", "data_format": "channels_last", "dilation_rate": [1, 1], "activation": "linear", "use_bias": false, "kernel_initializer": {"class_name": "VarianceScaling", "config": {"scale": 2.0, "mode": "fan_in", "distribution": "truncated_normal", "seed": null}}, "bias_initializer": {"class_name": "Zeros", "config": {}}, "kernel_regularizer": null, "bias_regularizer": null, "activity_regularizer": null, "kernel_constraint": null, "bias_constraint": null, "depth_multiplier": 1, "depthwise_initializer": {"class_name": "GlorotUniform", "config": {"seed": null}}, "pointwise_initializer": {"class_name": "GlorotUniform", "config": {"seed": null}}, "depthwise_regularizer": null, "pointwise_regularizer": null, "depthwise_constraint": null, "pointwise_constraint": null}, "name": "separable_conv_2_normal_right2_1", "inbound_nodes": [[["activation_42", 0, 0, {}]]]}, {"class_name": "SeparableConv2D", "config": {"name": "separable_conv_2_normal_left5_1", "trainable": false, "dtype": "float32", "filters": 168, "kernel_size": [3, 3], "strides": [1, 1], "padding": "same", "data_format": "channels_last", "dilation_rate": [1, 1], "activation": "linear", "use_bias": false, "kernel_initializer": {"class_name": "VarianceScaling", "config": {"scale": 2.0, "mode": "fan_in", "distribution": "truncated_normal", "seed": null}}, "bias_initializer": {"class_name": "Zeros", "config": {}}, "kernel_regularizer": null, "bias_regularizer": null, "activity_regularizer": null, "kernel_constraint": null, "bias_constraint": null, "depth_multiplier": 1, "depthwise_initializer": {"class_name": "GlorotUniform", "config": {"seed": null}}, "pointwise_initializer": {"class_name": "GlorotUniform", "config": {"seed": null}}, "depthwise_regularizer": null, "pointwise_regularizer": null, "depthwise_constraint": null, "pointwise_constraint": null}, "name": "separable_conv_2_normal_left5_1", "inbound_nodes": [[["activation_44", 0, 0, {}]]]}, {"class_name": "BatchNormalization", "config": {"name": "separable_conv_2_bn_normal_left1_1", "trainable": false, "dtype": "float32", "axis": [3], "momentum": 0.9997, "epsilon": 0.001, "center": true, "scale": true, "beta_initializer": {"class_name": "Zeros", "config": {}}, "gamma_initializer": {"class_name": "Ones", "config": {}}, "moving_mean_initializer": {"class_name": "Zeros", "config": {}}, "moving_variance_initializer": {"class_name": "Ones", "config": {}}, "beta_regularizer": null, "gamma_regularizer": null, "beta_constraint": null, "gamma_constraint": null}, "name": "separable_conv_2_bn_normal_left1_1", "inbound_nodes": [[["separable_conv_2_normal_left1_1", 0, 0, {}]]]}, {"class_name": "BatchNormalization", "config": {"name": "separable_conv_2_bn_normal_right1_1", "trainable": false, "dtype": "float32", "axis": [3], "momentum": 0.9997, "epsilon": 0.001, "center": true, "scale": true, "beta_initializer": {"class_name": "Zeros", "config": {}}, "gamma_initializer": {"class_name": "Ones", "config": {}}, "moving_mean_initializer": {"class_name": "Zeros", "config": {}}, "moving_variance_initializer": {"class_name": "Ones", "config": {}}, "beta_regularizer": null, "gamma_regularizer": null, "beta_constraint": null, "gamma_constraint": null}, "name": "separable_conv_2_bn_normal_right1_1", "inbound_nodes": [[["separable_conv_2_normal_right1_1", 0, 0, {}]]]}, {"class_name": "BatchNormalization", "config": {"name": "separable_conv_2_bn_normal_left2_1", "trainable": false, "dtype": "float32", "axis": [3], "momentum": 0.9997, "epsilon": 0.001, "center": true, "scale": true, "beta_initializer": {"class_name": "Zeros", "config": {}}, "gamma_initializer": {"class_name": "Ones", "config": {}}, "moving_mean_initializer": {"class_name": "Zeros", "config": {}}, "moving_variance_initializer": {"class_name": "Ones", "config": {}}, "beta_regularizer": null, "gamma_regularizer": null, "beta_constraint": null, "gamma_constraint": null}, "name": "separable_conv_2_bn_normal_left2_1", "inbound_nodes": [[["separable_conv_2_normal_left2_1", 0, 0, {}]]]}, {"class_name": "BatchNormalization", "config": {"name": "separable_conv_2_bn_normal_right2_1", "trainable": false, "dtype": "float32", "axis": [3], "momentum": 0.9997, "epsilon": 0.001, "center": true, "scale": true, "beta_initializer": {"class_name": "Zeros", "config": {}}, "gamma_initializer": {"class_name": "Ones", "config": {}}, "moving_mean_initializer": {"class_name": "Zeros", "config": {}}, "moving_variance_initializer": {"class_name": "Ones", "config": {}}, "beta_regularizer": null, "gamma_regularizer": null, "beta_constraint": null, "gamma_constraint": null}, "name": "separable_conv_2_bn_normal_right2_1", "inbound_nodes": [[["separable_conv_2_normal_right2_1", 0, 0, {}]]]}, {"class_name": "AveragePooling2D", "config": {"name": "normal_left3_1", "trainable": false, "dtype": "float32", "pool_size": [3, 3], "padding": "same", "strides": [1, 1], "data_format": "channels_last"}, "name": "normal_left3_1", "inbound_nodes": [[["normal_bn_1_1", 0, 0, {}]]]}, {"class_name": "AveragePooling2D", "config": {"name": "normal_left4_1", "trainable": false, "dtype": "float32", "pool_size": [3, 3], "padding": "same", "strides": [1, 1], "data_format": "channels_last"}, "name": "normal_left4_1", "inbound_nodes": [[["adjust_bn_1", 0, 0, {}]]]}, {"class_name": "AveragePooling2D", "config": {"name": "normal_right4_1", "trainable": false, "dtype": "float32", "pool_size": [3, 3], "padding": "same", "strides": [1, 1], "data_format": "channels_last"}, "name": "normal_right4_1", "inbound_nodes": [[["adjust_bn_1", 0, 0, {}]]]}, {"class_name": "BatchNormalization", "config": {"name": "separable_conv_2_bn_normal_left5_1", "trainable": false, "dtype": "float32", "axis": [3], "momentum": 0.9997, "epsilon": 0.001, "center": true, "scale": true, "beta_initializer": {"class_name": "Zeros", "config": {}}, "gamma_initializer": {"class_name": "Ones", "config": {}}, "moving_mean_initializer": {"class_name": "Zeros", "config": {}}, "moving_variance_initializer": {"class_name": "Ones", "config": {}}, "beta_regularizer": null, "gamma_regularizer": null, "beta_constraint": null, "gamma_constraint": null}, "name": "separable_conv_2_bn_normal_left5_1", "inbound_nodes": [[["separable_conv_2_normal_left5_1", 0, 0, {}]]]}, {"class_name": "Add", "config": {"name": "normal_add_1_1", "trainable": false, "dtype": "float32"}, "name": "normal_add_1_1", "inbound_nodes": [[["separable_conv_2_bn_normal_left1_1", 0, 0, {}], ["separable_conv_2_bn_normal_right1_1", 0, 0, {}]]]}, {"class_name": "Add", "config": {"name": "normal_add_2_1", "trainable": false, "dtype": "float32"}, "name": "normal_add_2_1", "inbound_nodes": [[["separable_conv_2_bn_normal_left2_1", 0, 0, {}], ["separable_conv_2_bn_normal_right2_1", 0, 0, {}]]]}, {"class_name": "Add", "config": {"name": "normal_add_3_1", "trainable": false, "dtype": "float32"}, "name": "normal_add_3_1", "inbound_nodes": [[["normal_left3_1", 0, 0, {}], ["adjust_bn_1", 0, 0, {}]]]}, {"class_name": "Add", "config": {"name": "normal_add_4_1", "trainable": false, "dtype": "float32"}, "name": "normal_add_4_1", "inbound_nodes": [[["normal_left4_1", 0, 0, {}], ["normal_right4_1", 0, 0, {}]]]}, {"class_name": "Add", "config": {"name": "normal_add_5_1", "trainable": false, "dtype": "float32"}, "name": "normal_add_5_1", "inbound_nodes": [[["separable_conv_2_bn_normal_left5_1", 0, 0, {}], ["normal_bn_1_1", 0, 0, {}]]]}, {"class_name": "Concatenate", "config": {"name": "normal_concat_1", "trainable": false, "dtype": "float32", "axis": -1}, "name": "normal_concat_1", "inbound_nodes": [[["adjust_bn_1", 0, 0, {}], ["normal_add_1_1", 0, 0, {}], ["normal_add_2_1", 0, 0, {}], ["normal_add_3_1", 0, 0, {}], ["normal_add_4_1", 0, 0, {}], ["normal_add_5_1", 0, 0, {}]]]}, {"class_name": "Activation", "config": {"name": "activation_45", "trainable": false, "dtype": "float32", "activation": "relu"}, "name": "activation_45", "inbound_nodes": [[["normal_concat_0", 0, 0, {}]]]}, {"class_name": "Activation", "config": {"name": "activation_46", "trainable": false, "dtype": "float32", "activation": "relu"}, "name": "activation_46", "inbound_nodes": [[["normal_concat_1", 0, 0, {}]]]}, {"class_name": "Conv2D", "config": {"name": "adjust_conv_projection_2", "trainable": false, "dtype": "float32", "filters": 168, "kernel_size": [1, 1], "strides": [1, 1], "padding": "same", "data_format": "channels_last", "dilation_rate": [1, 1], "activation": "linear", "use_bias": false, "kernel_initializer": {"class_name": "VarianceScaling", "config": {"scale": 2.0, "mode": "fan_in", "distribution": "truncated_normal", "seed": null}}, "bias_initializer": {"class_name": "Zeros", "config": {}}, "kernel_regularizer": null, "bias_regularizer": null, "activity_regularizer": null, "kernel_constraint": null, "bias_constraint": null}, "name": "adjust_conv_projection_2", "inbound_nodes": [[["activation_45", 0, 0, {}]]]}, {"class_name": "Conv2D", "config": {"name": "normal_conv_1_2", "trainable": false, "dtype": "float32", "filters": 168, "kernel_size": [1, 1], "strides": [1, 1], "padding": "same", "data_format": "channels_last", "dilation_rate": [1, 1], "activation": "linear", "use_bias": false, "kernel_initializer": {"class_name": "VarianceScaling", "config": {"scale": 2.0, "mode": "fan_in", "distribution": "truncated_normal", "seed": null}}, "bias_initializer": {"class_name": "Zeros", "config": {}}, "kernel_regularizer": null, "bias_regularizer": null, "activity_regularizer": null, "kernel_constraint": null, "bias_constraint": null}, "name": "normal_conv_1_2", "inbound_nodes": [[["activation_46", 0, 0, {}]]]}, {"class_name": "BatchNormalization", "config": {"name": "adjust_bn_2", "trainable": false, "dtype": "float32", "axis": [3], "momentum": 0.9997, "epsilon": 0.001, "center": true, "scale": true, "beta_initializer": {"class_name": "Zeros", "config": {}}, "gamma_initializer": {"class_name": "Ones", "config": {}}, "moving_mean_initializer": {"class_name": "Zeros", "config": {}}, "moving_variance_initializer": {"class_name": "Ones", "config": {}}, "beta_regularizer": null, "gamma_regularizer": null, "beta_constraint": null, "gamma_constraint": null}, "name": "adjust_bn_2", "inbound_nodes": [[["adjust_conv_projection_2", 0, 0, {}]]]}, {"class_name": "BatchNormalization", "config": {"name": "normal_bn_1_2", "trainable": false, "dtype": "float32", "axis": [3], "momentum": 0.9997, "epsilon": 0.001, "center": true, "scale": true, "beta_initializer": {"class_name": "Zeros", "config": {}}, "gamma_initializer": {"class_name": "Ones", "config": {}}, "moving_mean_initializer": {"class_name": "Zeros", "config": {}}, "moving_variance_initializer": {"class_name": "Ones", "config": {}}, "beta_regularizer": null, "gamma_regularizer": null, "beta_constraint": null, "gamma_constraint": null}, "name": "normal_bn_1_2", "inbound_nodes": [[["normal_conv_1_2", 0, 0, {}]]]}, {"class_name": "Activation", "config": {"name": "activation_47", "trainable": false, "dtype": "float32", "activation": "relu"}, "name": "activation_47", "inbound_nodes": [[["normal_bn_1_2", 0, 0, {}]]]}, {"class_name": "Activation", "config": {"name": "activation_49", "trainable": false, "dtype": "float32", "activation": "relu"}, "name": "activation_49", "inbound_nodes": [[["adjust_bn_2", 0, 0, {}]]]}, {"class_name": "Activation", "config": {"name": "activation_51", "trainable": false, "dtype": "float32", "activation": "relu"}, "name": "activation_51", "inbound_nodes": [[["adjust_bn_2", 0, 0, {}]]]}, {"class_name": "Activation", "config": {"name": "activation_53", "trainable": false, "dtype": "float32", "activation": "relu"}, "name": "activation_53", "inbound_nodes": [[["adjust_bn_2", 0, 0, {}]]]}, {"class_name": "Activation", "config": {"name": "activation_55", "trainable": false, "dtype": "float32", "activation": "relu"}, "name": "activation_55", "inbound_nodes": [[["normal_bn_1_2", 0, 0, {}]]]}, {"class_name": "SeparableConv2D", "config": {"name": "separable_conv_1_normal_left1_2", "trainable": false, "dtype": "float32", "filters": 168, "kernel_size": [5, 5], "strides": [1, 1], "padding": "same", "data_format": "channels_last", "dilation_rate": [1, 1], "activation": "linear", "use_bias": false, "kernel_initializer": {"class_name": "VarianceScaling", "config": {"scale": 2.0, "mode": "fan_in", "distribution": "truncated_normal", "seed": null}}, "bias_initializer": {"class_name": "Zeros", "config": {}}, "kernel_regularizer": null, "bias_regularizer": null, "activity_regularizer": null, "kernel_constraint": null, "bias_constraint": null, "depth_multiplier": 1, "depthwise_initializer": {"class_name": "GlorotUniform", "config": {"seed": null}}, "pointwise_initializer": {"class_name": "GlorotUniform", "config": {"seed": null}}, "depthwise_regularizer": null, "pointwise_regularizer": null, "depthwise_constraint": null, "pointwise_constraint": null}, "name": "separable_conv_1_normal_left1_2", "inbound_nodes": [[["activation_47", 0, 0, {}]]]}, {"class_name": "SeparableConv2D", "config": {"name": "separable_conv_1_normal_right1_2", "trainable": false, "dtype": "float32", "filters": 168, "kernel_size": [3, 3], "strides": [1, 1], "padding": "same", "data_format": "channels_last", "dilation_rate": [1, 1], "activation": "linear", "use_bias": false, "kernel_initializer": {"class_name": "VarianceScaling", "config": {"scale": 2.0, "mode": "fan_in", "distribution": "truncated_normal", "seed": null}}, "bias_initializer": {"class_name": "Zeros", "config": {}}, "kernel_regularizer": null, "bias_regularizer": null, "activity_regularizer": null, "kernel_constraint": null, "bias_constraint": null, "depth_multiplier": 1, "depthwise_initializer": {"class_name": "GlorotUniform", "config": {"seed": null}}, "pointwise_initializer": {"class_name": "GlorotUniform", "config": {"seed": null}}, "depthwise_regularizer": null, "pointwise_regularizer": null, "depthwise_constraint": null, "pointwise_constraint": null}, "name": "separable_conv_1_normal_right1_2", "inbound_nodes": [[["activation_49", 0, 0, {}]]]}, {"class_name": "SeparableConv2D", "config": {"name": "separable_conv_1_normal_left2_2", "trainable": false, "dtype": "float32", "filters": 168, "kernel_size": [5, 5], "strides": [1, 1], "padding": "same", "data_format": "channels_last", "dilation_rate": [1, 1], "activation": "linear", "use_bias": false, "kernel_initializer": {"class_name": "VarianceScaling", "config": {"scale": 2.0, "mode": "fan_in", "distribution": "truncated_normal", "seed": null}}, "bias_initializer": {"class_name": "Zeros", "config": {}}, "kernel_regularizer": null, "bias_regularizer": null, "activity_regularizer": null, "kernel_constraint": null, "bias_constraint": null, "depth_multiplier": 1, "depthwise_initializer": {"class_name": "GlorotUniform", "config": {"seed": null}}, "pointwise_initializer": {"class_name": "GlorotUniform", "config": {"seed": null}}, "depthwise_regularizer": null, "pointwise_regularizer": null, "depthwise_constraint": null, "pointwise_constraint": null}, "name": "separable_conv_1_normal_left2_2", "inbound_nodes": [[["activation_51", 0, 0, {}]]]}, {"class_name": "SeparableConv2D", "config": {"name": "separable_conv_1_normal_right2_2", "trainable": false, "dtype": "float32", "filters": 168, "kernel_size": [3, 3], "strides": [1, 1], "padding": "same", "data_format": "channels_last", "dilation_rate": [1, 1], "activation": "linear", "use_bias": false, "kernel_initializer": {"class_name": "VarianceScaling", "config": {"scale": 2.0, "mode": "fan_in", "distribution": "truncated_normal", "seed": null}}, "bias_initializer": {"class_name": "Zeros", "config": {}}, "kernel_regularizer": null, "bias_regularizer": null, "activity_regularizer": null, "kernel_constraint": null, "bias_constraint": null, "depth_multiplier": 1, "depthwise_initializer": {"class_name": "GlorotUniform", "config": {"seed": null}}, "pointwise_initializer": {"class_name": "GlorotUniform", "config": {"seed": null}}, "depthwise_regularizer": null, "pointwise_regularizer": null, "depthwise_constraint": null, "pointwise_constraint": null}, "name": "separable_conv_1_normal_right2_2", "inbound_nodes": [[["activation_53", 0, 0, {}]]]}, {"class_name": "SeparableConv2D", "config": {"name": "separable_conv_1_normal_left5_2", "trainable": false, "dtype": "float32", "filters": 168, "kernel_size": [3, 3], "strides": [1, 1], "padding": "same", "data_format": "channels_last", "dilation_rate": [1, 1], "activation": "linear", "use_bias": false, "kernel_initializer": {"class_name": "VarianceScaling", "config": {"scale": 2.0, "mode": "fan_in", "distribution": "truncated_normal", "seed": null}}, "bias_initializer": {"class_name": "Zeros", "config": {}}, "kernel_regularizer": null, "bias_regularizer": null, "activity_regularizer": null, "kernel_constraint": null, "bias_constraint": null, "depth_multiplier": 1, "depthwise_initializer": {"class_name": "GlorotUniform", "config": {"seed": null}}, "pointwise_initializer": {"class_name": "GlorotUniform", "config": {"seed": null}}, "depthwise_regularizer": null, "pointwise_regularizer": null, "depthwise_constraint": null, "pointwise_constraint": null}, "name": "separable_conv_1_normal_left5_2", "inbound_nodes": [[["activation_55", 0, 0, {}]]]}, {"class_name": "BatchNormalization", "config": {"name": "separable_conv_1_bn_normal_left1_2", "trainable": false, "dtype": "float32", "axis": [3], "momentum": 0.9997, "epsilon": 0.001, "center": true, "scale": true, "beta_initializer": {"class_name": "Zeros", "config": {}}, "gamma_initializer": {"class_name": "Ones", "config": {}}, "moving_mean_initializer": {"class_name": "Zeros", "config": {}}, "moving_variance_initializer": {"class_name": "Ones", "config": {}}, "beta_regularizer": null, "gamma_regularizer": null, "beta_constraint": null, "gamma_constraint": null}, "name": "separable_conv_1_bn_normal_left1_2", "inbound_nodes": [[["separable_conv_1_normal_left1_2", 0, 0, {}]]]}, {"class_name": "BatchNormalization", "config": {"name": "separable_conv_1_bn_normal_right1_2", "trainable": false, "dtype": "float32", "axis": [3], "momentum": 0.9997, "epsilon": 0.001, "center": true, "scale": true, "beta_initializer": {"class_name": "Zeros", "config": {}}, "gamma_initializer": {"class_name": "Ones", "config": {}}, "moving_mean_initializer": {"class_name": "Zeros", "config": {}}, "moving_variance_initializer": {"class_name": "Ones", "config": {}}, "beta_regularizer": null, "gamma_regularizer": null, "beta_constraint": null, "gamma_constraint": null}, "name": "separable_conv_1_bn_normal_right1_2", "inbound_nodes": [[["separable_conv_1_normal_right1_2", 0, 0, {}]]]}, {"class_name": "BatchNormalization", "config": {"name": "separable_conv_1_bn_normal_left2_2", "trainable": false, "dtype": "float32", "axis": [3], "momentum": 0.9997, "epsilon": 0.001, "center": true, "scale": true, "beta_initializer": {"class_name": "Zeros", "config": {}}, "gamma_initializer": {"class_name": "Ones", "config": {}}, "moving_mean_initializer": {"class_name": "Zeros", "config": {}}, "moving_variance_initializer": {"class_name": "Ones", "config": {}}, "beta_regularizer": null, "gamma_regularizer": null, "beta_constraint": null, "gamma_constraint": null}, "name": "separable_conv_1_bn_normal_left2_2", "inbound_nodes": [[["separable_conv_1_normal_left2_2", 0, 0, {}]]]}, {"class_name": "BatchNormalization", "config": {"name": "separable_conv_1_bn_normal_right2_2", "trainable": false, "dtype": "float32", "axis": [3], "momentum": 0.9997, "epsilon": 0.001, "center": true, "scale": true, "beta_initializer": {"class_name": "Zeros", "config": {}}, "gamma_initializer": {"class_name": "Ones", "config": {}}, "moving_mean_initializer": {"class_name": "Zeros", "config": {}}, "moving_variance_initializer": {"class_name": "Ones", "config": {}}, "beta_regularizer": null, "gamma_regularizer": null, "beta_constraint": null, "gamma_constraint": null}, "name": "separable_conv_1_bn_normal_right2_2", "inbound_nodes": [[["separable_conv_1_normal_right2_2", 0, 0, {}]]]}, {"class_name": "BatchNormalization", "config": {"name": "separable_conv_1_bn_normal_left5_2", "trainable": false, "dtype": "float32", "axis": [3], "momentum": 0.9997, "epsilon": 0.001, "center": true, "scale": true, "beta_initializer": {"class_name": "Zeros", "config": {}}, "gamma_initializer": {"class_name": "Ones", "config": {}}, "moving_mean_initializer": {"class_name": "Zeros", "config": {}}, "moving_variance_initializer": {"class_name": "Ones", "config": {}}, "beta_regularizer": null, "gamma_regularizer": null, "beta_constraint": null, "gamma_constraint": null}, "name": "separable_conv_1_bn_normal_left5_2", "inbound_nodes": [[["separable_conv_1_normal_left5_2", 0, 0, {}]]]}, {"class_name": "Activation", "config": {"name": "activation_48", "trainable": false, "dtype": "float32", "activation": "relu"}, "name": "activation_48", "inbound_nodes": [[["separable_conv_1_bn_normal_left1_2", 0, 0, {}]]]}, {"class_name": "Activation", "config": {"name": "activation_50", "trainable": false, "dtype": "float32", "activation": "relu"}, "name": "activation_50", "inbound_nodes": [[["separable_conv_1_bn_normal_right1_2", 0, 0, {}]]]}, {"class_name": "Activation", "config": {"name": "activation_52", "trainable": false, "dtype": "float32", "activation": "relu"}, "name": "activation_52", "inbound_nodes": [[["separable_conv_1_bn_normal_left2_2", 0, 0, {}]]]}, {"class_name": "Activation", "config": {"name": "activation_54", "trainable": false, "dtype": "float32", "activation": "relu"}, "name": "activation_54", "inbound_nodes": [[["separable_conv_1_bn_normal_right2_2", 0, 0, {}]]]}, {"class_name": "Activation", "config": {"name": "activation_56", "trainable": false, "dtype": "float32", "activation": "relu"}, "name": "activation_56", "inbound_nodes": [[["separable_conv_1_bn_normal_left5_2", 0, 0, {}]]]}, {"class_name": "SeparableConv2D", "config": {"name": "separable_conv_2_normal_left1_2", "trainable": false, "dtype": "float32", "filters": 168, "kernel_size": [5, 5], "strides": [1, 1], "padding": "same", "data_format": "channels_last", "dilation_rate": [1, 1], "activation": "linear", "use_bias": false, "kernel_initializer": {"class_name": "VarianceScaling", "config": {"scale": 2.0, "mode": "fan_in", "distribution": "truncated_normal", "seed": null}}, "bias_initializer": {"class_name": "Zeros", "config": {}}, "kernel_regularizer": null, "bias_regularizer": null, "activity_regularizer": null, "kernel_constraint": null, "bias_constraint": null, "depth_multiplier": 1, "depthwise_initializer": {"class_name": "GlorotUniform", "config": {"seed": null}}, "pointwise_initializer": {"class_name": "GlorotUniform", "config": {"seed": null}}, "depthwise_regularizer": null, "pointwise_regularizer": null, "depthwise_constraint": null, "pointwise_constraint": null}, "name": "separable_conv_2_normal_left1_2", "inbound_nodes": [[["activation_48", 0, 0, {}]]]}, {"class_name": "SeparableConv2D", "config": {"name": "separable_conv_2_normal_right1_2", "trainable": false, "dtype": "float32", "filters": 168, "kernel_size": [3, 3], "strides": [1, 1], "padding": "same", "data_format": "channels_last", "dilation_rate": [1, 1], "activation": "linear", "use_bias": false, "kernel_initializer": {"class_name": "VarianceScaling", "config": {"scale": 2.0, "mode": "fan_in", "distribution": "truncated_normal", "seed": null}}, "bias_initializer": {"class_name": "Zeros", "config": {}}, "kernel_regularizer": null, "bias_regularizer": null, "activity_regularizer": null, "kernel_constraint": null, "bias_constraint": null, "depth_multiplier": 1, "depthwise_initializer": {"class_name": "GlorotUniform", "config": {"seed": null}}, "pointwise_initializer": {"class_name": "GlorotUniform", "config": {"seed": null}}, "depthwise_regularizer": null, "pointwise_regularizer": null, "depthwise_constraint": null, "pointwise_constraint": null}, "name": "separable_conv_2_normal_right1_2", "inbound_nodes": [[["activation_50", 0, 0, {}]]]}, {"class_name": "SeparableConv2D", "config": {"name": "separable_conv_2_normal_left2_2", "trainable": false, "dtype": "float32", "filters": 168, "kernel_size": [5, 5], "strides": [1, 1], "padding": "same", "data_format": "channels_last", "dilation_rate": [1, 1], "activation": "linear", "use_bias": false, "kernel_initializer": {"class_name": "VarianceScaling", "config": {"scale": 2.0, "mode": "fan_in", "distribution": "truncated_normal", "seed": null}}, "bias_initializer": {"class_name": "Zeros", "config": {}}, "kernel_regularizer": null, "bias_regularizer": null, "activity_regularizer": null, "kernel_constraint": null, "bias_constraint": null, "depth_multiplier": 1, "depthwise_initializer": {"class_name": "GlorotUniform", "config": {"seed": null}}, "pointwise_initializer": {"class_name": "GlorotUniform", "config": {"seed": null}}, "depthwise_regularizer": null, "pointwise_regularizer": null, "depthwise_constraint": null, "pointwise_constraint": null}, "name": "separable_conv_2_normal_left2_2", "inbound_nodes": [[["activation_52", 0, 0, {}]]]}, {"class_name": "SeparableConv2D", "config": {"name": "separable_conv_2_normal_right2_2", "trainable": false, "dtype": "float32", "filters": 168, "kernel_size": [3, 3], "strides": [1, 1], "padding": "same", "data_format": "channels_last", "dilation_rate": [1, 1], "activation": "linear", "use_bias": false, "kernel_initializer": {"class_name": "VarianceScaling", "config": {"scale": 2.0, "mode": "fan_in", "distribution": "truncated_normal", "seed": null}}, "bias_initializer": {"class_name": "Zeros", "config": {}}, "kernel_regularizer": null, "bias_regularizer": null, "activity_regularizer": null, "kernel_constraint": null, "bias_constraint": null, "depth_multiplier": 1, "depthwise_initializer": {"class_name": "GlorotUniform", "config": {"seed": null}}, "pointwise_initializer": {"class_name": "GlorotUniform", "config": {"seed": null}}, "depthwise_regularizer": null, "pointwise_regularizer": null, "depthwise_constraint": null, "pointwise_constraint": null}, "name": "separable_conv_2_normal_right2_2", "inbound_nodes": [[["activation_54", 0, 0, {}]]]}, {"class_name": "SeparableConv2D", "config": {"name": "separable_conv_2_normal_left5_2", "trainable": false, "dtype": "float32", "filters": 168, "kernel_size": [3, 3], "strides": [1, 1], "padding": "same", "data_format": "channels_last", "dilation_rate": [1, 1], "activation": "linear", "use_bias": false, "kernel_initializer": {"class_name": "VarianceScaling", "config": {"scale": 2.0, "mode": "fan_in", "distribution": "truncated_normal", "seed": null}}, "bias_initializer": {"class_name": "Zeros", "config": {}}, "kernel_regularizer": null, "bias_regularizer": null, "activity_regularizer": null, "kernel_constraint": null, "bias_constraint": null, "depth_multiplier": 1, "depthwise_initializer": {"class_name": "GlorotUniform", "config": {"seed": null}}, "pointwise_initializer": {"class_name": "GlorotUniform", "config": {"seed": null}}, "depthwise_regularizer": null, "pointwise_regularizer": null, "depthwise_constraint": null, "pointwise_constraint": null}, "name": "separable_conv_2_normal_left5_2", "inbound_nodes": [[["activation_56", 0, 0, {}]]]}, {"class_name": "BatchNormalization", "config": {"name": "separable_conv_2_bn_normal_left1_2", "trainable": false, "dtype": "float32", "axis": [3], "momentum": 0.9997, "epsilon": 0.001, "center": true, "scale": true, "beta_initializer": {"class_name": "Zeros", "config": {}}, "gamma_initializer": {"class_name": "Ones", "config": {}}, "moving_mean_initializer": {"class_name": "Zeros", "config": {}}, "moving_variance_initializer": {"class_name": "Ones", "config": {}}, "beta_regularizer": null, "gamma_regularizer": null, "beta_constraint": null, "gamma_constraint": null}, "name": "separable_conv_2_bn_normal_left1_2", "inbound_nodes": [[["separable_conv_2_normal_left1_2", 0, 0, {}]]]}, {"class_name": "BatchNormalization", "config": {"name": "separable_conv_2_bn_normal_right1_2", "trainable": false, "dtype": "float32", "axis": [3], "momentum": 0.9997, "epsilon": 0.001, "center": true, "scale": true, "beta_initializer": {"class_name": "Zeros", "config": {}}, "gamma_initializer": {"class_name": "Ones", "config": {}}, "moving_mean_initializer": {"class_name": "Zeros", "config": {}}, "moving_variance_initializer": {"class_name": "Ones", "config": {}}, "beta_regularizer": null, "gamma_regularizer": null, "beta_constraint": null, "gamma_constraint": null}, "name": "separable_conv_2_bn_normal_right1_2", "inbound_nodes": [[["separable_conv_2_normal_right1_2", 0, 0, {}]]]}, {"class_name": "BatchNormalization", "config": {"name": "separable_conv_2_bn_normal_left2_2", "trainable": false, "dtype": "float32", "axis": [3], "momentum": 0.9997, "epsilon": 0.001, "center": true, "scale": true, "beta_initializer": {"class_name": "Zeros", "config": {}}, "gamma_initializer": {"class_name": "Ones", "config": {}}, "moving_mean_initializer": {"class_name": "Zeros", "config": {}}, "moving_variance_initializer": {"class_name": "Ones", "config": {}}, "beta_regularizer": null, "gamma_regularizer": null, "beta_constraint": null, "gamma_constraint": null}, "name": "separable_conv_2_bn_normal_left2_2", "inbound_nodes": [[["separable_conv_2_normal_left2_2", 0, 0, {}]]]}, {"class_name": "BatchNormalization", "config": {"name": "separable_conv_2_bn_normal_right2_2", "trainable": false, "dtype": "float32", "axis": [3], "momentum": 0.9997, "epsilon": 0.001, "center": true, "scale": true, "beta_initializer": {"class_name": "Zeros", "config": {}}, "gamma_initializer": {"class_name": "Ones", "config": {}}, "moving_mean_initializer": {"class_name": "Zeros", "config": {}}, "moving_variance_initializer": {"class_name": "Ones", "config": {}}, "beta_regularizer": null, "gamma_regularizer": null, "beta_constraint": null, "gamma_constraint": null}, "name": "separable_conv_2_bn_normal_right2_2", "inbound_nodes": [[["separable_conv_2_normal_right2_2", 0, 0, {}]]]}, {"class_name": "AveragePooling2D", "config": {"name": "normal_left3_2", "trainable": false, "dtype": "float32", "pool_size": [3, 3], "padding": "same", "strides": [1, 1], "data_format": "channels_last"}, "name": "normal_left3_2", "inbound_nodes": [[["normal_bn_1_2", 0, 0, {}]]]}, {"class_name": "AveragePooling2D", "config": {"name": "normal_left4_2", "trainable": false, "dtype": "float32", "pool_size": [3, 3], "padding": "same", "strides": [1, 1], "data_format": "channels_last"}, "name": "normal_left4_2", "inbound_nodes": [[["adjust_bn_2", 0, 0, {}]]]}, {"class_name": "AveragePooling2D", "config": {"name": "normal_right4_2", "trainable": false, "dtype": "float32", "pool_size": [3, 3], "padding": "same", "strides": [1, 1], "data_format": "channels_last"}, "name": "normal_right4_2", "inbound_nodes": [[["adjust_bn_2", 0, 0, {}]]]}, {"class_name": "BatchNormalization", "config": {"name": "separable_conv_2_bn_normal_left5_2", "trainable": false, "dtype": "float32", "axis": [3], "momentum": 0.9997, "epsilon": 0.001, "center": true, "scale": true, "beta_initializer": {"class_name": "Zeros", "config": {}}, "gamma_initializer": {"class_name": "Ones", "config": {}}, "moving_mean_initializer": {"class_name": "Zeros", "config": {}}, "moving_variance_initializer": {"class_name": "Ones", "config": {}}, "beta_regularizer": null, "gamma_regularizer": null, "beta_constraint": null, "gamma_constraint": null}, "name": "separable_conv_2_bn_normal_left5_2", "inbound_nodes": [[["separable_conv_2_normal_left5_2", 0, 0, {}]]]}, {"class_name": "Add", "config": {"name": "normal_add_1_2", "trainable": false, "dtype": "float32"}, "name": "normal_add_1_2", "inbound_nodes": [[["separable_conv_2_bn_normal_left1_2", 0, 0, {}], ["separable_conv_2_bn_normal_right1_2", 0, 0, {}]]]}, {"class_name": "Add", "config": {"name": "normal_add_2_2", "trainable": false, "dtype": "float32"}, "name": "normal_add_2_2", "inbound_nodes": [[["separable_conv_2_bn_normal_left2_2", 0, 0, {}], ["separable_conv_2_bn_normal_right2_2", 0, 0, {}]]]}, {"class_name": "Add", "config": {"name": "normal_add_3_2", "trainable": false, "dtype": "float32"}, "name": "normal_add_3_2", "inbound_nodes": [[["normal_left3_2", 0, 0, {}], ["adjust_bn_2", 0, 0, {}]]]}, {"class_name": "Add", "config": {"name": "normal_add_4_2", "trainable": false, "dtype": "float32"}, "name": "normal_add_4_2", "inbound_nodes": [[["normal_left4_2", 0, 0, {}], ["normal_right4_2", 0, 0, {}]]]}, {"class_name": "Add", "config": {"name": "normal_add_5_2", "trainable": false, "dtype": "float32"}, "name": "normal_add_5_2", "inbound_nodes": [[["separable_conv_2_bn_normal_left5_2", 0, 0, {}], ["normal_bn_1_2", 0, 0, {}]]]}, {"class_name": "Concatenate", "config": {"name": "normal_concat_2", "trainable": false, "dtype": "float32", "axis": -1}, "name": "normal_concat_2", "inbound_nodes": [[["adjust_bn_2", 0, 0, {}], ["normal_add_1_2", 0, 0, {}], ["normal_add_2_2", 0, 0, {}], ["normal_add_3_2", 0, 0, {}], ["normal_add_4_2", 0, 0, {}], ["normal_add_5_2", 0, 0, {}]]]}, {"class_name": "Activation", "config": {"name": "activation_57", "trainable": false, "dtype": "float32", "activation": "relu"}, "name": "activation_57", "inbound_nodes": [[["normal_concat_1", 0, 0, {}]]]}, {"class_name": "Activation", "config": {"name": "activation_58", "trainable": false, "dtype": "float32", "activation": "relu"}, "name": "activation_58", "inbound_nodes": [[["normal_concat_2", 0, 0, {}]]]}, {"class_name": "Conv2D", "config": {"name": "adjust_conv_projection_3", "trainable": false, "dtype": "float32", "filters": 168, "kernel_size": [1, 1], "strides": [1, 1], "padding": "same", "data_format": "channels_last", "dilation_rate": [1, 1], "activation": "linear", "use_bias": false, "kernel_initializer": {"class_name": "VarianceScaling", "config": {"scale": 2.0, "mode": "fan_in", "distribution": "truncated_normal", "seed": null}}, "bias_initializer": {"class_name": "Zeros", "config": {}}, "kernel_regularizer": null, "bias_regularizer": null, "activity_regularizer": null, "kernel_constraint": null, "bias_constraint": null}, "name": "adjust_conv_projection_3", "inbound_nodes": [[["activation_57", 0, 0, {}]]]}, {"class_name": "Conv2D", "config": {"name": "normal_conv_1_3", "trainable": false, "dtype": "float32", "filters": 168, "kernel_size": [1, 1], "strides": [1, 1], "padding": "same", "data_format": "channels_last", "dilation_rate": [1, 1], "activation": "linear", "use_bias": false, "kernel_initializer": {"class_name": "VarianceScaling", "config": {"scale": 2.0, "mode": "fan_in", "distribution": "truncated_normal", "seed": null}}, "bias_initializer": {"class_name": "Zeros", "config": {}}, "kernel_regularizer": null, "bias_regularizer": null, "activity_regularizer": null, "kernel_constraint": null, "bias_constraint": null}, "name": "normal_conv_1_3", "inbound_nodes": [[["activation_58", 0, 0, {}]]]}, {"class_name": "BatchNormalization", "config": {"name": "adjust_bn_3", "trainable": false, "dtype": "float32", "axis": [3], "momentum": 0.9997, "epsilon": 0.001, "center": true, "scale": true, "beta_initializer": {"class_name": "Zeros", "config": {}}, "gamma_initializer": {"class_name": "Ones", "config": {}}, "moving_mean_initializer": {"class_name": "Zeros", "config": {}}, "moving_variance_initializer": {"class_name": "Ones", "config": {}}, "beta_regularizer": null, "gamma_regularizer": null, "beta_constraint": null, "gamma_constraint": null}, "name": "adjust_bn_3", "inbound_nodes": [[["adjust_conv_projection_3", 0, 0, {}]]]}, {"class_name": "BatchNormalization", "config": {"name": "normal_bn_1_3", "trainable": false, "dtype": "float32", "axis": [3], "momentum": 0.9997, "epsilon": 0.001, "center": true, "scale": true, "beta_initializer": {"class_name": "Zeros", "config": {}}, "gamma_initializer": {"class_name": "Ones", "config": {}}, "moving_mean_initializer": {"class_name": "Zeros", "config": {}}, "moving_variance_initializer": {"class_name": "Ones", "config": {}}, "beta_regularizer": null, "gamma_regularizer": null, "beta_constraint": null, "gamma_constraint": null}, "name": "normal_bn_1_3", "inbound_nodes": [[["normal_conv_1_3", 0, 0, {}]]]}, {"class_name": "Activation", "config": {"name": "activation_59", "trainable": false, "dtype": "float32", "activation": "relu"}, "name": "activation_59", "inbound_nodes": [[["normal_bn_1_3", 0, 0, {}]]]}, {"class_name": "Activation", "config": {"name": "activation_61", "trainable": false, "dtype": "float32", "activation": "relu"}, "name": "activation_61", "inbound_nodes": [[["adjust_bn_3", 0, 0, {}]]]}, {"class_name": "Activation", "config": {"name": "activation_63", "trainable": false, "dtype": "float32", "activation": "relu"}, "name": "activation_63", "inbound_nodes": [[["adjust_bn_3", 0, 0, {}]]]}, {"class_name": "Activation", "config": {"name": "activation_65", "trainable": false, "dtype": "float32", "activation": "relu"}, "name": "activation_65", "inbound_nodes": [[["adjust_bn_3", 0, 0, {}]]]}, {"class_name": "Activation", "config": {"name": "activation_67", "trainable": false, "dtype": "float32", "activation": "relu"}, "name": "activation_67", "inbound_nodes": [[["normal_bn_1_3", 0, 0, {}]]]}, {"class_name": "SeparableConv2D", "config": {"name": "separable_conv_1_normal_left1_3", "trainable": false, "dtype": "float32", "filters": 168, "kernel_size": [5, 5], "strides": [1, 1], "padding": "same", "data_format": "channels_last", "dilation_rate": [1, 1], "activation": "linear", "use_bias": false, "kernel_initializer": {"class_name": "VarianceScaling", "config": {"scale": 2.0, "mode": "fan_in", "distribution": "truncated_normal", "seed": null}}, "bias_initializer": {"class_name": "Zeros", "config": {}}, "kernel_regularizer": null, "bias_regularizer": null, "activity_regularizer": null, "kernel_constraint": null, "bias_constraint": null, "depth_multiplier": 1, "depthwise_initializer": {"class_name": "GlorotUniform", "config": {"seed": null}}, "pointwise_initializer": {"class_name": "GlorotUniform", "config": {"seed": null}}, "depthwise_regularizer": null, "pointwise_regularizer": null, "depthwise_constraint": null, "pointwise_constraint": null}, "name": "separable_conv_1_normal_left1_3", "inbound_nodes": [[["activation_59", 0, 0, {}]]]}, {"class_name": "SeparableConv2D", "config": {"name": "separable_conv_1_normal_right1_3", "trainable": false, "dtype": "float32", "filters": 168, "kernel_size": [3, 3], "strides": [1, 1], "padding": "same", "data_format": "channels_last", "dilation_rate": [1, 1], "activation": "linear", "use_bias": false, "kernel_initializer": {"class_name": "VarianceScaling", "config": {"scale": 2.0, "mode": "fan_in", "distribution": "truncated_normal", "seed": null}}, "bias_initializer": {"class_name": "Zeros", "config": {}}, "kernel_regularizer": null, "bias_regularizer": null, "activity_regularizer": null, "kernel_constraint": null, "bias_constraint": null, "depth_multiplier": 1, "depthwise_initializer": {"class_name": "GlorotUniform", "config": {"seed": null}}, "pointwise_initializer": {"class_name": "GlorotUniform", "config": {"seed": null}}, "depthwise_regularizer": null, "pointwise_regularizer": null, "depthwise_constraint": null, "pointwise_constraint": null}, "name": "separable_conv_1_normal_right1_3", "inbound_nodes": [[["activation_61", 0, 0, {}]]]}, {"class_name": "SeparableConv2D", "config": {"name": "separable_conv_1_normal_left2_3", "trainable": false, "dtype": "float32", "filters": 168, "kernel_size": [5, 5], "strides": [1, 1], "padding": "same", "data_format": "channels_last", "dilation_rate": [1, 1], "activation": "linear", "use_bias": false, "kernel_initializer": {"class_name": "VarianceScaling", "config": {"scale": 2.0, "mode": "fan_in", "distribution": "truncated_normal", "seed": null}}, "bias_initializer": {"class_name": "Zeros", "config": {}}, "kernel_regularizer": null, "bias_regularizer": null, "activity_regularizer": null, "kernel_constraint": null, "bias_constraint": null, "depth_multiplier": 1, "depthwise_initializer": {"class_name": "GlorotUniform", "config": {"seed": null}}, "pointwise_initializer": {"class_name": "GlorotUniform", "config": {"seed": null}}, "depthwise_regularizer": null, "pointwise_regularizer": null, "depthwise_constraint": null, "pointwise_constraint": null}, "name": "separable_conv_1_normal_left2_3", "inbound_nodes": [[["activation_63", 0, 0, {}]]]}, {"class_name": "SeparableConv2D", "config": {"name": "separable_conv_1_normal_right2_3", "trainable": false, "dtype": "float32", "filters": 168, "kernel_size": [3, 3], "strides": [1, 1], "padding": "same", "data_format": "channels_last", "dilation_rate": [1, 1], "activation": "linear", "use_bias": false, "kernel_initializer": {"class_name": "VarianceScaling", "config": {"scale": 2.0, "mode": "fan_in", "distribution": "truncated_normal", "seed": null}}, "bias_initializer": {"class_name": "Zeros", "config": {}}, "kernel_regularizer": null, "bias_regularizer": null, "activity_regularizer": null, "kernel_constraint": null, "bias_constraint": null, "depth_multiplier": 1, "depthwise_initializer": {"class_name": "GlorotUniform", "config": {"seed": null}}, "pointwise_initializer": {"class_name": "GlorotUniform", "config": {"seed": null}}, "depthwise_regularizer": null, "pointwise_regularizer": null, "depthwise_constraint": null, "pointwise_constraint": null}, "name": "separable_conv_1_normal_right2_3", "inbound_nodes": [[["activation_65", 0, 0, {}]]]}, {"class_name": "SeparableConv2D", "config": {"name": "separable_conv_1_normal_left5_3", "trainable": false, "dtype": "float32", "filters": 168, "kernel_size": [3, 3], "strides": [1, 1], "padding": "same", "data_format": "channels_last", "dilation_rate": [1, 1], "activation": "linear", "use_bias": false, "kernel_initializer": {"class_name": "VarianceScaling", "config": {"scale": 2.0, "mode": "fan_in", "distribution": "truncated_normal", "seed": null}}, "bias_initializer": {"class_name": "Zeros", "config": {}}, "kernel_regularizer": null, "bias_regularizer": null, "activity_regularizer": null, "kernel_constraint": null, "bias_constraint": null, "depth_multiplier": 1, "depthwise_initializer": {"class_name": "GlorotUniform", "config": {"seed": null}}, "pointwise_initializer": {"class_name": "GlorotUniform", "config": {"seed": null}}, "depthwise_regularizer": null, "pointwise_regularizer": null, "depthwise_constraint": null, "pointwise_constraint": null}, "name": "separable_conv_1_normal_left5_3", "inbound_nodes": [[["activation_67", 0, 0, {}]]]}, {"class_name": "BatchNormalization", "config": {"name": "separable_conv_1_bn_normal_left1_3", "trainable": false, "dtype": "float32", "axis": [3], "momentum": 0.9997, "epsilon": 0.001, "center": true, "scale": true, "beta_initializer": {"class_name": "Zeros", "config": {}}, "gamma_initializer": {"class_name": "Ones", "config": {}}, "moving_mean_initializer": {"class_name": "Zeros", "config": {}}, "moving_variance_initializer": {"class_name": "Ones", "config": {}}, "beta_regularizer": null, "gamma_regularizer": null, "beta_constraint": null, "gamma_constraint": null}, "name": "separable_conv_1_bn_normal_left1_3", "inbound_nodes": [[["separable_conv_1_normal_left1_3", 0, 0, {}]]]}, {"class_name": "BatchNormalization", "config": {"name": "separable_conv_1_bn_normal_right1_3", "trainable": false, "dtype": "float32", "axis": [3], "momentum": 0.9997, "epsilon": 0.001, "center": true, "scale": true, "beta_initializer": {"class_name": "Zeros", "config": {}}, "gamma_initializer": {"class_name": "Ones", "config": {}}, "moving_mean_initializer": {"class_name": "Zeros", "config": {}}, "moving_variance_initializer": {"class_name": "Ones", "config": {}}, "beta_regularizer": null, "gamma_regularizer": null, "beta_constraint": null, "gamma_constraint": null}, "name": "separable_conv_1_bn_normal_right1_3", "inbound_nodes": [[["separable_conv_1_normal_right1_3", 0, 0, {}]]]}, {"class_name": "BatchNormalization", "config": {"name": "separable_conv_1_bn_normal_left2_3", "trainable": false, "dtype": "float32", "axis": [3], "momentum": 0.9997, "epsilon": 0.001, "center": true, "scale": true, "beta_initializer": {"class_name": "Zeros", "config": {}}, "gamma_initializer": {"class_name": "Ones", "config": {}}, "moving_mean_initializer": {"class_name": "Zeros", "config": {}}, "moving_variance_initializer": {"class_name": "Ones", "config": {}}, "beta_regularizer": null, "gamma_regularizer": null, "beta_constraint": null, "gamma_constraint": null}, "name": "separable_conv_1_bn_normal_left2_3", "inbound_nodes": [[["separable_conv_1_normal_left2_3", 0, 0, {}]]]}, {"class_name": "BatchNormalization", "config": {"name": "separable_conv_1_bn_normal_right2_3", "trainable": false, "dtype": "float32", "axis": [3], "momentum": 0.9997, "epsilon": 0.001, "center": true, "scale": true, "beta_initializer": {"class_name": "Zeros", "config": {}}, "gamma_initializer": {"class_name": "Ones", "config": {}}, "moving_mean_initializer": {"class_name": "Zeros", "config": {}}, "moving_variance_initializer": {"class_name": "Ones", "config": {}}, "beta_regularizer": null, "gamma_regularizer": null, "beta_constraint": null, "gamma_constraint": null}, "name": "separable_conv_1_bn_normal_right2_3", "inbound_nodes": [[["separable_conv_1_normal_right2_3", 0, 0, {}]]]}, {"class_name": "BatchNormalization", "config": {"name": "separable_conv_1_bn_normal_left5_3", "trainable": false, "dtype": "float32", "axis": [3], "momentum": 0.9997, "epsilon": 0.001, "center": true, "scale": true, "beta_initializer": {"class_name": "Zeros", "config": {}}, "gamma_initializer": {"class_name": "Ones", "config": {}}, "moving_mean_initializer": {"class_name": "Zeros", "config": {}}, "moving_variance_initializer": {"class_name": "Ones", "config": {}}, "beta_regularizer": null, "gamma_regularizer": null, "beta_constraint": null, "gamma_constraint": null}, "name": "separable_conv_1_bn_normal_left5_3", "inbound_nodes": [[["separable_conv_1_normal_left5_3", 0, 0, {}]]]}, {"class_name": "Activation", "config": {"name": "activation_60", "trainable": false, "dtype": "float32", "activation": "relu"}, "name": "activation_60", "inbound_nodes": [[["separable_conv_1_bn_normal_left1_3", 0, 0, {}]]]}, {"class_name": "Activation", "config": {"name": "activation_62", "trainable": false, "dtype": "float32", "activation": "relu"}, "name": "activation_62", "inbound_nodes": [[["separable_conv_1_bn_normal_right1_3", 0, 0, {}]]]}, {"class_name": "Activation", "config": {"name": "activation_64", "trainable": false, "dtype": "float32", "activation": "relu"}, "name": "activation_64", "inbound_nodes": [[["separable_conv_1_bn_normal_left2_3", 0, 0, {}]]]}, {"class_name": "Activation", "config": {"name": "activation_66", "trainable": false, "dtype": "float32", "activation": "relu"}, "name": "activation_66", "inbound_nodes": [[["separable_conv_1_bn_normal_right2_3", 0, 0, {}]]]}, {"class_name": "Activation", "config": {"name": "activation_68", "trainable": false, "dtype": "float32", "activation": "relu"}, "name": "activation_68", "inbound_nodes": [[["separable_conv_1_bn_normal_left5_3", 0, 0, {}]]]}, {"class_name": "SeparableConv2D", "config": {"name": "separable_conv_2_normal_left1_3", "trainable": false, "dtype": "float32", "filters": 168, "kernel_size": [5, 5], "strides": [1, 1], "padding": "same", "data_format": "channels_last", "dilation_rate": [1, 1], "activation": "linear", "use_bias": false, "kernel_initializer": {"class_name": "VarianceScaling", "config": {"scale": 2.0, "mode": "fan_in", "distribution": "truncated_normal", "seed": null}}, "bias_initializer": {"class_name": "Zeros", "config": {}}, "kernel_regularizer": null, "bias_regularizer": null, "activity_regularizer": null, "kernel_constraint": null, "bias_constraint": null, "depth_multiplier": 1, "depthwise_initializer": {"class_name": "GlorotUniform", "config": {"seed": null}}, "pointwise_initializer": {"class_name": "GlorotUniform", "config": {"seed": null}}, "depthwise_regularizer": null, "pointwise_regularizer": null, "depthwise_constraint": null, "pointwise_constraint": null}, "name": "separable_conv_2_normal_left1_3", "inbound_nodes": [[["activation_60", 0, 0, {}]]]}, {"class_name": "SeparableConv2D", "config": {"name": "separable_conv_2_normal_right1_3", "trainable": false, "dtype": "float32", "filters": 168, "kernel_size": [3, 3], "strides": [1, 1], "padding": "same", "data_format": "channels_last", "dilation_rate": [1, 1], "activation": "linear", "use_bias": f…
"adjust_conv_projection_17", 0, 0, {}]]]}, {"class_name": "BatchNormalization", "config": {"name": "normal_bn_1_17", "trainable": false, "dtype": "float32", "axis": [3], "momentum": 0.9997, "epsilon": 0.001, "center": true, "scale": true, "beta_initializer": {"class_name": "Zeros", "config": {}}, "gamma_initializer": {"class_name": "Ones", "config": {}}, "moving_mean_initializer": {"class_name": "Zeros", "config": {}}, "moving_variance_initializer": {"class_name": "Ones", "config": {}}, "beta_regularizer": null, "gamma_regularizer": null, "beta_constraint": null, "gamma_constraint": null}, "name": "normal_bn_1_17", "inbound_nodes": [[["normal_conv_1_17", 0, 0, {}]]]}, {"class_name": "Activation", "config": {"name": "activation_237", "trainable": false, "dtype": "float32", "activation": "relu"}, "name": "activation_237", "inbound_nodes": [[["normal_bn_1_17", 0, 0, {}]]]}, {"class_name": "Activation", "config": {"name": "activation_239", "trainable": false, "dtype": "float32", "activation": "relu"}, "name": "activation_239", "inbound_nodes": [[["adjust_bn_17", 0, 0, {}]]]}, {"class_name": "Activation", "config": {"name": "activation_241", "trainable": false, "dtype": "float32", "activation": "relu"}, "name": "activation_241", "inbound_nodes": [[["adjust_bn_17", 0, 0, {}]]]}, {"class_name": "Activation", "config": {"name": "activation_243", "trainable": false, "dtype": "float32", "activation": "relu"}, "name": "activation_243", "inbound_nodes": [[["adjust_bn_17", 0, 0, {}]]]}, {"class_name": "Activation", "config": {"name": "activation_245", "trainable": false, "dtype": "float32", "activation": "relu"}, "name": "activation_245", "inbound_nodes": [[["normal_bn_1_17", 0, 0, {}]]]}, {"class_name": "SeparableConv2D", "config": {"name": "separable_conv_1_normal_left1_17", "trainable": false, "dtype": "float32", "filters": 672, "kernel_size": [5, 5], "strides": [1, 1], "padding": "same", "data_format": "channels_last", "dilation_rate": [1, 1], "activation": "linear", "use_bias": false, "kernel_initializer": {"class_name": "VarianceScaling", "config": {"scale": 2.0, "mode": "fan_in", "distribution": "truncated_normal", "seed": null}}, "bias_initializer": {"class_name": "Zeros", "config": {}}, "kernel_regularizer": null, "bias_regularizer": null, "activity_regularizer": null, "kernel_constraint": null, "bias_constraint": null, "depth_multiplier": 1, "depthwise_initializer": {"class_name": "GlorotUniform", "config": {"seed": null}}, "pointwise_initializer": {"class_name": "GlorotUniform", "config": {"seed": null}}, "depthwise_regularizer": null, "pointwise_regularizer": null, "depthwise_constraint": null, "pointwise_constraint": null}, "name": "separable_conv_1_normal_left1_17", "inbound_nodes": [[["activation_237", 0, 0, {}]]]}, {"class_name": "SeparableConv2D", "config": {"name": "separable_conv_1_normal_right1_17", "trainable": false, "dtype": "float32", "filters": 672, "kernel_size": [3, 3], "strides": [1, 1], "padding": "same", "data_format": "channels_last", "dilation_rate": [1, 1], "activation": "linear", "use_bias": false, "kernel_initializer": {"class_name": "VarianceScaling", "config": {"scale": 2.0, "mode": "fan_in", "distribution": "truncated_normal", "seed": null}}, "bias_initializer": {"class_name": "Zeros", "config": {}}, "kernel_regularizer": null, "bias_regularizer": null, "activity_regularizer": null, "kernel_constraint": null, "bias_constraint": null, "depth_multiplier": 1, "depthwise_initializer": {"class_name": "GlorotUniform", "config": {"seed": null}}, "pointwise_initializer": {"class_name": "GlorotUniform", "config": {"seed": null}}, "depthwise_regularizer": null, "pointwise_regularizer": null, "depthwise_constraint": null, "pointwise_constraint": null}, "name": "separable_conv_1_normal_right1_17", "inbound_nodes": [[["activation_239", 0, 0, {}]]]}, {"class_name": "SeparableConv2D", "config": {"name": "separable_conv_1_normal_left2_17", "trainable": false, "dtype": "float32", "filters": 672, "kernel_size": [5, 5], "strides": [1, 1], "padding": "same", "data_format": "channels_last", "dilation_rate": [1, 1], "activation": "linear", "use_bias": false, "kernel_initializer": {"class_name": "VarianceScaling", "config": {"scale": 2.0, "mode": "fan_in", "distribution": "truncated_normal", "seed": null}}, "bias_initializer": {"class_name": "Zeros", "config": {}}, "kernel_regularizer": null, "bias_regularizer": null, "activity_regularizer": null, "kernel_constraint": null, "bias_constraint": null, "depth_multiplier": 1, "depthwise_initializer": {"class_name": "GlorotUniform", "config": {"seed": null}}, "pointwise_initializer": {"class_name": "GlorotUniform", "config": {"seed": null}}, "depthwise_regularizer": null, "pointwise_regularizer": null, "depthwise_constraint": null, "pointwise_constraint": null}, "name": "separable_conv_1_normal_left2_17", "inbound_nodes": [[["activation_241", 0, 0, {}]]]}, {"class_name": "SeparableConv2D", "config": {"name": "separable_conv_1_normal_right2_17", "trainable": false, "dtype": "float32", "filters": 672, "kernel_size": [3, 3], "strides": [1, 1], "padding": "same", "data_format": "channels_last", "dilation_rate": [1, 1], "activation": "linear", "use_bias": false, "kernel_initializer": {"class_name": "VarianceScaling", "config": {"scale": 2.0, "mode": "fan_in", "distribution": "truncated_normal", "seed": null}}, "bias_initializer": {"class_name": "Zeros", "config": {}}, "kernel_regularizer": null, "bias_regularizer": null, "activity_regularizer": null, "kernel_constraint": null, "bias_constraint": null, "depth_multiplier": 1, "depthwise_initializer": {"class_name": "GlorotUniform", "config": {"seed": null}}, "pointwise_initializer": {"class_name": "GlorotUniform", "config": {"seed": null}}, "depthwise_regularizer": null, "pointwise_regularizer": null, "depthwise_constraint": null, "pointwise_constraint": null}, "name": "separable_conv_1_normal_right2_17", "inbound_nodes": [[["activation_243", 0, 0, {}]]]}, {"class_name": "SeparableConv2D", "config": {"name": "separable_conv_1_normal_left5_17", "trainable": false, "dtype": "float32", "filters": 672, "kernel_size": [3, 3], "strides": [1, 1], "padding": "same", "data_format": "channels_last", "dilation_rate": [1, 1], "activation": "linear", "use_bias": false, "kernel_initializer": {"class_name": "VarianceScaling", "config": {"scale": 2.0, "mode": "fan_in", "distribution": "truncated_normal", "seed": null}}, "bias_initializer": {"class_name": "Zeros", "config": {}}, "kernel_regularizer": null, "bias_regularizer": null, "activity_regularizer": null, "kernel_constraint": null, "bias_constraint": null, "depth_multiplier": 1, "depthwise_initializer": {"class_name": "GlorotUniform", "config": {"seed": null}}, "pointwise_initializer": {"class_name": "GlorotUniform", "config": {"seed": null}}, "depthwise_regularizer": null, "pointwise_regularizer": null, "depthwise_constraint": null, "pointwise_constraint": null}, "name": "separable_conv_1_normal_left5_17", "inbound_nodes": [[["activation_245", 0, 0, {}]]]}, {"class_name": "BatchNormalization", "config": {"name": "separable_conv_1_bn_normal_left1_17", "trainable": false, "dtype": "float32", "axis": [3], "momentum": 0.9997, "epsilon": 0.001, "center": true, "scale": true, "beta_initializer": {"class_name": "Zeros", "config": {}}, "gamma_initializer": {"class_name": "Ones", "config": {}}, "moving_mean_initializer": {"class_name": "Zeros", "config": {}}, "moving_variance_initializer": {"class_name": "Ones", "config": {}}, "beta_regularizer": null, "gamma_regularizer": null, "beta_constraint": null, "gamma_constraint": null}, "name": "separable_conv_1_bn_normal_left1_17", "inbound_nodes": [[["separable_conv_1_normal_left1_17", 0, 0, {}]]]}, {"class_name": "BatchNormalization", "config": {"name": "separable_conv_1_bn_normal_right1_17", "trainable": false, "dtype": "float32", "axis": [3], "momentum": 0.9997, "epsilon": 0.001, "center": true, "scale": true, "beta_initializer": {"class_name": "Zeros", "config": {}}, "gamma_initializer": {"class_name": "Ones", "config": {}}, "moving_mean_initializer": {"class_name": "Zeros", "config": {}}, "moving_variance_initializer": {"class_name": "Ones", "config": {}}, "beta_regularizer": null, "gamma_regularizer": null, "beta_constraint": null, "gamma_constraint": null}, "name": "separable_conv_1_bn_normal_right1_17", "inbound_nodes": [[["separable_conv_1_normal_right1_17", 0, 0, {}]]]}, {"class_name": "BatchNormalization", "config": {"name": "separable_conv_1_bn_normal_left2_17", "trainable": false, "dtype": "float32", "axis": [3], "momentum": 0.9997, "epsilon": 0.001, "center": true, "scale": true, "beta_initializer": {"class_name": "Zeros", "config": {}}, "gamma_initializer": {"class_name": "Ones", "config": {}}, "moving_mean_initializer": {"class_name": "Zeros", "config": {}}, "moving_variance_initializer": {"class_name": "Ones", "config": {}}, "beta_regularizer": null, "gamma_regularizer": null, "beta_constraint": null, "gamma_constraint": null}, "name": "separable_conv_1_bn_normal_left2_17", "inbound_nodes": [[["separable_conv_1_normal_left2_17", 0, 0, {}]]]}, {"class_name": "BatchNormalization", "config": {"name": "separable_conv_1_bn_normal_right2_17", "trainable": false, "dtype": "float32", "axis": [3], "momentum": 0.9997, "epsilon": 0.001, "center": true, "scale": true, "beta_initializer": {"class_name": "Zeros", "config": {}}, "gamma_initializer": {"class_name": "Ones", "config": {}}, "moving_mean_initializer": {"class_name": "Zeros", "config": {}}, "moving_variance_initializer": {"class_name": "Ones", "config": {}}, "beta_regularizer": null, "gamma_regularizer": null, "beta_constraint": null, "gamma_constraint": null}, "name": "separable_conv_1_bn_normal_right2_17", "inbound_nodes": [[["separable_conv_1_normal_right2_17", 0, 0, {}]]]}, {"class_name": "BatchNormalization", "config": {"name": "separable_conv_1_bn_normal_left5_17", "trainable": false, "dtype": "float32", "axis": [3], "momentum": 0.9997, "epsilon": 0.001, "center": true, "scale": true, "beta_initializer": {"class_name": "Zeros", "config": {}}, "gamma_initializer": {"class_name": "Ones", "config": {}}, "moving_mean_initializer": {"class_name": "Zeros", "config": {}}, "moving_variance_initializer": {"class_name": "Ones", "config": {}}, "beta_regularizer": null, "gamma_regularizer": null, "beta_constraint": null, "gamma_constraint": null}, "name": "separable_conv_1_bn_normal_left5_17", "inbound_nodes": [[["separable_conv_1_normal_left5_17", 0, 0, {}]]]}, {"class_name": "Activation", "config": {"name": "activation_238", "trainable": false, "dtype": "float32", "activation": "relu"}, "name": "activation_238", "inbound_nodes": [[["separable_conv_1_bn_normal_left1_17", 0, 0, {}]]]}, {"class_name": "Activation", "config": {"name": "activation_240", "trainable": false, "dtype": "float32", "activation": "relu"}, "name": "activation_240", "inbound_nodes": [[["separable_conv_1_bn_normal_right1_17", 0, 0, {}]]]}, {"class_name": "Activation", "config": {"name": "activation_242", "trainable": false, "dtype": "float32", "activation": "relu"}, "name": "activation_242", "inbound_nodes": [[["separable_conv_1_bn_normal_left2_17", 0, 0, {}]]]}, {"class_name": "Activation", "config": {"name": "activation_244", "trainable": false, "dtype": "float32", "activation": "relu"}, "name": "activation_244", "inbound_nodes": [[["separable_conv_1_bn_normal_right2_17", 0, 0, {}]]]}, {"class_name": "Activation", "config": {"name": "activation_246", "trainable": false, "dtype": "float32", "activation": "relu"}, "name": "activation_246", "inbound_nodes": [[["separable_conv_1_bn_normal_left5_17", 0, 0, {}]]]}, {"class_name": "SeparableConv2D", "config": {"name": "separable_conv_2_normal_left1_17", "trainable": false, "dtype": "float32", "filters": 672, "kernel_size": [5, 5], "strides": [1, 1], "padding": "same", "data_format": "channels_last", "dilation_rate": [1, 1], "activation": "linear", "use_bias": false, "kernel_initializer": {"class_name": "VarianceScaling", "config": {"scale": 2.0, "mode": "fan_in", "distribution": "truncated_normal", "seed": null}}, "bias_initializer": {"class_name": "Zeros", "config": {}}, "kernel_regularizer": null, "bias_regularizer": null, "activity_regularizer": null, "kernel_constraint": null, "bias_constraint": null, "depth_multiplier": 1, "depthwise_initializer": {"class_name": "GlorotUniform", "config": {"seed": null}}, "pointwise_initializer": {"class_name": "GlorotUniform", "config": {"seed": null}}, "depthwise_regularizer": null, "pointwise_regularizer": null, "depthwise_constraint": null, "pointwise_constraint": null}, "name": "separable_conv_2_normal_left1_17", "inbound_nodes": [[["activation_238", 0, 0, {}]]]}, {"class_name": "SeparableConv2D", "config": {"name": "separable_conv_2_normal_right1_17", "trainable": false, "dtype": "float32", "filters": 672, "kernel_size": [3, 3], "strides": [1, 1], "padding": "same", "data_format": "channels_last", "dilation_rate": [1, 1], "activation": "linear", "use_bias": false, "kernel_initializer": {"class_name": "VarianceScaling", "config": {"scale": 2.0, "mode": "fan_in", "distribution": "truncated_normal", "seed": null}}, "bias_initializer": {"class_name": "Zeros", "config": {}}, "kernel_regularizer": null, "bias_regularizer": null, "activity_regularizer": null, "kernel_constraint": null, "bias_constraint": null, "depth_multiplier": 1, "depthwise_initializer": {"class_name": "GlorotUniform", "config": {"seed": null}}, "pointwise_initializer": {"class_name": "GlorotUniform", "config": {"seed": null}}, "depthwise_regularizer": null, "pointwise_regularizer": null, "depthwise_constraint": null, "pointwise_constraint": null}, "name": "separable_conv_2_normal_right1_17", "inbound_nodes": [[["activation_240", 0, 0, {}]]]}, {"class_name": "SeparableConv2D", "config": {"name": "separable_conv_2_normal_left2_17", "trainable": false, "dtype": "float32", "filters": 672, "kernel_size": [5, 5], "strides": [1, 1], "padding": "same", "data_format": "channels_last", "dilation_rate": [1, 1], "activation": "linear", "use_bias": false, "kernel_initializer": {"class_name": "VarianceScaling", "config": {"scale": 2.0, "mode": "fan_in", "distribution": "truncated_normal", "seed": null}}, "bias_initializer": {"class_name": "Zeros", "config": {}}, "kernel_regularizer": null, "bias_regularizer": null, "activity_regularizer": null, "kernel_constraint": null, "bias_constraint": null, "depth_multiplier": 1, "depthwise_initializer": {"class_name": "GlorotUniform", "config": {"seed": null}}, "pointwise_initializer": {"class_name": "GlorotUniform", "config": {"seed": null}}, "depthwise_regularizer": null, "pointwise_regularizer": null, "depthwise_constraint": null, "pointwise_constraint": null}, "name": "separable_conv_2_normal_left2_17", "inbound_nodes": [[["activation_242", 0, 0, {}]]]}, {"class_name": "SeparableConv2D", "config": {"name": "separable_conv_2_normal_right2_17", "trainable": false, "dtype": "float32", "filters": 672, "kernel_size": [3, 3], "strides": [1, 1], "padding": "same", "data_format": "channels_last", "dilation_rate": [1, 1], "activation": "linear", "use_bias": false, "kernel_initializer": {"class_name": "VarianceScaling", "config": {"scale": 2.0, "mode": "fan_in", "distribution": "truncated_normal", "seed": null}}, "bias_initializer": {"class_name": "Zeros", "config": {}}, "kernel_regularizer": null, "bias_regularizer": null, "activity_regularizer": null, "kernel_constraint": null, "bias_constraint": null, "depth_multiplier": 1, "depthwise_initializer": {"class_name": "GlorotUniform", "config": {"seed": null}}, "pointwise_initializer": {"class_name": "GlorotUniform", "config": {"seed": null}}, "depthwise_regularizer": null, "pointwise_regularizer": null, "depthwise_constraint": null, "pointwise_constraint": null}, "name": "separable_conv_2_normal_right2_17", "inbound_nodes": [[["activation_244", 0, 0, {}]]]}, {"class_name": "SeparableConv2D", "config": {"name": "separable_conv_2_normal_left5_17", "trainable": false, "dtype": "float32", "filters": 672, "kernel_size": [3, 3], "strides": [1, 1], "padding": "same", "data_format": "channels_last", "dilation_rate": [1, 1], "activation": "linear", "use_bias": false, "kernel_initializer": {"class_name": "VarianceScaling", "config": {"scale": 2.0, "mode": "fan_in", "distribution": "truncated_normal", "seed": null}}, "bias_initializer": {"class_name": "Zeros", "config": {}}, "kernel_regularizer": null, "bias_regularizer": null, "activity_regularizer": null, "kernel_constraint": null, "bias_constraint": null, "depth_multiplier": 1, "depthwise_initializer": {"class_name": "GlorotUniform", "config": {"seed": null}}, "pointwise_initializer": {"class_name": "GlorotUniform", "config": {"seed": null}}, "depthwise_regularizer": null, "pointwise_regularizer": null, "depthwise_constraint": null, "pointwise_constraint": null}, "name": "separable_conv_2_normal_left5_17", "inbound_nodes": [[["activation_246", 0, 0, {}]]]}, {"class_name": "BatchNormalization", "config": {"name": "separable_conv_2_bn_normal_left1_17", "trainable": false, "dtype": "float32", "axis": [3], "momentum": 0.9997, "epsilon": 0.001, "center": true, "scale": true, "beta_initializer": {"class_name": "Zeros", "config": {}}, "gamma_initializer": {"class_name": "Ones", "config": {}}, "moving_mean_initializer": {"class_name": "Zeros", "config": {}}, "moving_variance_initializer": {"class_name": "Ones", "config": {}}, "beta_regularizer": null, "gamma_regularizer": null, "beta_constraint": null, "gamma_constraint": null}, "name": "separable_conv_2_bn_normal_left1_17", "inbound_nodes": [[["separable_conv_2_normal_left1_17", 0, 0, {}]]]}, {"class_name": "BatchNormalization", "config": {"name": "separable_conv_2_bn_normal_right1_17", "trainable": false, "dtype": "float32", "axis": [3], "momentum": 0.9997, "epsilon": 0.001, "center": true, "scale": true, "beta_initializer": {"class_name": "Zeros", "config": {}}, "gamma_initializer": {"class_name": "Ones", "config": {}}, "moving_mean_initializer": {"class_name": "Zeros", "config": {}}, "moving_variance_initializer": {"class_name": "Ones", "config": {}}, "beta_regularizer": null, "gamma_regularizer": null, "beta_constraint": null, "gamma_constraint": null}, "name": "separable_conv_2_bn_normal_right1_17", "inbound_nodes": [[["separable_conv_2_normal_right1_17", 0, 0, {}]]]}, {"class_name": "BatchNormalization", "config": {"name": "separable_conv_2_bn_normal_left2_17", "trainable": false, "dtype": "float32", "axis": [3], "momentum": 0.9997, "epsilon": 0.001, "center": true, "scale": true, "beta_initializer": {"class_name": "Zeros", "config": {}}, "gamma_initializer": {"class_name": "Ones", "config": {}}, "moving_mean_initializer": {"class_name": "Zeros", "config": {}}, "moving_variance_initializer": {"class_name": "Ones", "config": {}}, "beta_regularizer": null, "gamma_regularizer": null, "beta_constraint": null, "gamma_constraint": null}, "name": "separable_conv_2_bn_normal_left2_17", "inbound_nodes": [[["separable_conv_2_normal_left2_17", 0, 0, {}]]]}, {"class_name": "BatchNormalization", "config": {"name": "separable_conv_2_bn_normal_right2_17", "trainable": false, "dtype": "float32", "axis": [3], "momentum": 0.9997, "epsilon": 0.001, "center": true, "scale": true, "beta_initializer": {"class_name": "Zeros", "config": {}}, "gamma_initializer": {"class_name": "Ones", "config": {}}, "moving_mean_initializer": {"class_name": "Zeros", "config": {}}, "moving_variance_initializer": {"class_name": "Ones", "config": {}}, "beta_regularizer": null, "gamma_regularizer": null, "beta_constraint": null, "gamma_constraint": null}, "name": "separable_conv_2_bn_normal_right2_17", "inbound_nodes": [[["separable_conv_2_normal_right2_17", 0, 0, {}]]]}, {"class_name": "AveragePooling2D", "config": {"name": "normal_left3_17", "trainable": false, "dtype": "float32", "pool_size": [3, 3], "padding": "same", "strides": [1, 1], "data_format": "channels_last"}, "name": "normal_left3_17", "inbound_nodes": [[["normal_bn_1_17", 0, 0, {}]]]}, {"class_name": "AveragePooling2D", "config": {"name": "normal_left4_17", "trainable": false, "dtype": "float32", "pool_size": [3, 3], "padding": "same", "strides": [1, 1], "data_format": "channels_last"}, "name": "normal_left4_17", "inbound_nodes": [[["adjust_bn_17", 0, 0, {}]]]}, {"class_name": "AveragePooling2D", "config": {"name": "normal_right4_17", "trainable": false, "dtype": "float32", "pool_size": [3, 3], "padding": "same", "strides": [1, 1], "data_format": "channels_last"}, "name": "normal_right4_17", "inbound_nodes": [[["adjust_bn_17", 0, 0, {}]]]}, {"class_name": "BatchNormalization", "config": {"name": "separable_conv_2_bn_normal_left5_17", "trainable": false, "dtype": "float32", "axis": [3], "momentum": 0.9997, "epsilon": 0.001, "center": true, "scale": true, "beta_initializer": {"class_name": "Zeros", "config": {}}, "gamma_initializer": {"class_name": "Ones", "config": {}}, "moving_mean_initializer": {"class_name": "Zeros", "config": {}}, "moving_variance_initializer": {"class_name": "Ones", "config": {}}, "beta_regularizer": null, "gamma_regularizer": null, "beta_constraint": null, "gamma_constraint": null}, "name": "separable_conv_2_bn_normal_left5_17", "inbound_nodes": [[["separable_conv_2_normal_left5_17", 0, 0, {}]]]}, {"class_name": "Add", "config": {"name": "normal_add_1_17", "trainable": false, "dtype": "float32"}, "name": "normal_add_1_17", "inbound_nodes": [[["separable_conv_2_bn_normal_left1_17", 0, 0, {}], ["separable_conv_2_bn_normal_right1_17", 0, 0, {}]]]}, {"class_name": "Add", "config": {"name": "normal_add_2_17", "trainable": false, "dtype": "float32"}, "name": "normal_add_2_17", "inbound_nodes": [[["separable_conv_2_bn_normal_left2_17", 0, 0, {}], ["separable_conv_2_bn_normal_right2_17", 0, 0, {}]]]}, {"class_name": "Add", "config": {"name": "normal_add_3_17", "trainable": false, "dtype": "float32"}, "name": "normal_add_3_17", "inbound_nodes": [[["normal_left3_17", 0, 0, {}], ["adjust_bn_17", 0, 0, {}]]]}, {"class_name": "Add", "config": {"name": "normal_add_4_17", "trainable": false, "dtype": "float32"}, "name": "normal_add_4_17", "inbound_nodes": [[["normal_left4_17", 0, 0, {}], ["normal_right4_17", 0, 0, {}]]]}, {"class_name": "Add", "config": {"name": "normal_add_5_17", "trainable": false, "dtype": "float32"}, "name": "normal_add_5_17", "inbound_nodes": [[["separable_conv_2_bn_normal_left5_17", 0, 0, {}], ["normal_bn_1_17", 0, 0, {}]]]}, {"class_name": "Concatenate", "config": {"name": "normal_concat_17", "trainable": false, "dtype": "float32", "axis": -1}, "name": "normal_concat_17", "inbound_nodes": [[["adjust_bn_17", 0, 0, {}], ["normal_add_1_17", 0, 0, {}], ["normal_add_2_17", 0, 0, {}], ["normal_add_3_17", 0, 0, {}], ["normal_add_4_17", 0, 0, {}], ["normal_add_5_17", 0, 0, {}]]]}, {"class_name": "Activation", "config": {"name": "activation_247", "trainable": false, "dtype": "float32", "activation": "relu"}, "name": "activation_247", "inbound_nodes": [[["normal_concat_16", 0, 0, {}]]]}, {"class_name": "Activation", "config": {"name": "activation_248", "trainable": false, "dtype": "float32", "activation": "relu"}, "name": "activation_248", "inbound_nodes": [[["normal_concat_17", 0, 0, {}]]]}, {"class_name": "Conv2D", "config": {"name": "adjust_conv_projection_18", "trainable": false, "dtype": "float32", "filters": 672, "kernel_size": [1, 1], "strides": [1, 1], "padding": "same", "data_format": "channels_last", "dilation_rate": [1, 1], "activation": "linear", "use_bias": false, "kernel_initializer": {"class_name": "VarianceScaling", "config": {"scale": 2.0, "mode": "fan_in", "distribution": "truncated_normal", "seed": null}}, "bias_initializer": {"class_name": "Zeros", "config": {}}, "kernel_regularizer": null, "bias_regularizer": null, "activity_regularizer": null, "kernel_constraint": null, "bias_constraint": null}, "name": "adjust_conv_projection_18", "inbound_nodes": [[["activation_247", 0, 0, {}]]]}, {"class_name": "Conv2D", "config": {"name": "normal_conv_1_18", "trainable": false, "dtype": "float32", "filters": 672, "kernel_size": [1, 1], "strides": [1, 1], "padding": "same", "data_format": "channels_last", "dilation_rate": [1, 1], "activation": "linear", "use_bias": false, "kernel_initializer": {"class_name": "VarianceScaling", "config": {"scale": 2.0, "mode": "fan_in", "distribution": "truncated_normal", "seed": null}}, "bias_initializer": {"class_name": "Zeros", "config": {}}, "kernel_regularizer": null, "bias_regularizer": null, "activity_regularizer": null, "kernel_constraint": null, "bias_constraint": null}, "name": "normal_conv_1_18", "inbound_nodes": [[["activation_248", 0, 0, {}]]]}, {"class_name": "BatchNormalization", "config": {"name": "adjust_bn_18", "trainable": false, "dtype": "float32", "axis": [3], "momentum": 0.9997, "epsilon": 0.001, "center": true, "scale": true, "beta_initializer": {"class_name": "Zeros", "config": {}}, "gamma_initializer": {"class_name": "Ones", "config": {}}, "moving_mean_initializer": {"class_name": "Zeros", "config": {}}, "moving_variance_initializer": {"class_name": "Ones", "config": {}}, "beta_regularizer": null, "gamma_regularizer": null, "beta_constraint": null, "gamma_constraint": null}, "name": "adjust_bn_18", "inbound_nodes": [[["adjust_conv_projection_18", 0, 0, {}]]]}, {"class_name": "BatchNormalization", "config": {"name": "normal_bn_1_18", "trainable": false, "dtype": "float32", "axis": [3], "momentum": 0.9997, "epsilon": 0.001, "center": true, "scale": true, "beta_initializer": {"class_name": "Zeros", "config": {}}, "gamma_initializer": {"class_name": "Ones", "config": {}}, "moving_mean_initializer": {"class_name": "Zeros", "config": {}}, "moving_variance_initializer": {"class_name": "Ones", "config": {}}, "beta_regularizer": null, "gamma_regularizer": null, "beta_constraint": null, "gamma_constraint": null}, "name": "normal_bn_1_18", "inbound_nodes": [[["normal_conv_1_18", 0, 0, {}]]]}, {"class_name": "Activation", "config": {"name": "activation_249", "trainable": false, "dtype": "float32", "activation": "relu"}, "name": "activation_249", "inbound_nodes": [[["normal_bn_1_18", 0, 0, {}]]]}, {"class_name": "Activation", "config": {"name": "activation_251", "trainable": false, "dtype": "float32", "activation": "relu"}, "name": "activation_251", "inbound_nodes": [[["adjust_bn_18", 0, 0, {}]]]}, {"class_name": "Activation", "config": {"name": "activation_253", "trainable": false, "dtype": "float32", "activation": "relu"}, "name": "activation_253", "inbound_nodes": [[["adjust_bn_18", 0, 0, {}]]]}, {"class_name": "Activation", "config": {"name": "activation_255", "trainable": false, "dtype": "float32", "activation": "relu"}, "name": "activation_255", "inbound_nodes": [[["adjust_bn_18", 0, 0, {}]]]}, {"class_name": "Activation", "config": {"name": "activation_257", "trainable": false, "dtype": "float32", "activation": "relu"}, "name": "activation_257", "inbound_nodes": [[["normal_bn_1_18", 0, 0, {}]]]}, {"class_name": "SeparableConv2D", "config": {"name": "separable_conv_1_normal_left1_18", "trainable": false, "dtype": "float32", "filters": 672, "kernel_size": [5, 5], "strides": [1, 1], "padding": "same", "data_format": "channels_last", "dilation_rate": [1, 1], "activation": "linear", "use_bias": false, "kernel_initializer": {"class_name": "VarianceScaling", "config": {"scale": 2.0, "mode": "fan_in", "distribution": "truncated_normal", "seed": null}}, "bias_initializer": {"class_name": "Zeros", "config": {}}, "kernel_regularizer": null, "bias_regularizer": null, "activity_regularizer": null, "kernel_constraint": null, "bias_constraint": null, "depth_multiplier": 1, "depthwise_initializer": {"class_name": "GlorotUniform", "config": {"seed": null}}, "pointwise_initializer": {"class_name": "GlorotUniform", "config": {"seed": null}}, "depthwise_regularizer": null, "pointwise_regularizer": null, "depthwise_constraint": null, "pointwise_constraint": null}, "name": "separable_conv_1_normal_left1_18", "inbound_nodes": [[["activation_249", 0, 0, {}]]]}, {"class_name": "SeparableConv2D", "config": {"name": "separable_conv_1_normal_right1_18", "trainable": false, "dtype": "float32", "filters": 672, "kernel_size": [3, 3], "strides": [1, 1], "padding": "same", "data_format": "channels_last", "dilation_rate": [1, 1], "activation": "linear", "use_bias": false, "kernel_initializer": {"class_name": "VarianceScaling", "config": {"scale": 2.0, "mode": "fan_in", "distribution": "truncated_normal", "seed": null}}, "bias_initializer": {"class_name": "Zeros", "config": {}}, "kernel_regularizer": null, "bias_regularizer": null, "activity_regularizer": null, "kernel_constraint": null, "bias_constraint": null, "depth_multiplier": 1, "depthwise_initializer": {"class_name": "GlorotUniform", "config": {"seed": null}}, "pointwise_initializer": {"class_name": "GlorotUniform", "config": {"seed": null}}, "depthwise_regularizer": null, "pointwise_regularizer": null, "depthwise_constraint": null, "pointwise_constraint": null}, "name": "separable_conv_1_normal_right1_18", "inbound_nodes": [[["activation_251", 0, 0, {}]]]}, {"class_name": "SeparableConv2D", "config": {"name": "separable_conv_1_normal_left2_18", "trainable": false, "dtype": "float32", "filters": 672, "kernel_size": [5, 5], "strides": [1, 1], "padding": "same", "data_format": "channels_last", "dilation_rate": [1, 1], "activation": "linear", "use_bias": false, "kernel_initializer": {"class_name": "VarianceScaling", "config": {"scale": 2.0, "mode": "fan_in", "distribution": "truncated_normal", "seed": null}}, "bias_initializer": {"class_name": "Zeros", "config": {}}, "kernel_regularizer": null, "bias_regularizer": null, "activity_regularizer": null, "kernel_constraint": null, "bias_constraint": null, "depth_multiplier": 1, "depthwise_initializer": {"class_name": "GlorotUniform", "config": {"seed": null}}, "pointwise_initializer": {"class_name": "GlorotUniform", "config": {"seed": null}}, "depthwise_regularizer": null, "pointwise_regularizer": null, "depthwise_constraint": null, "pointwise_constraint": null}, "name": "separable_conv_1_normal_left2_18", "inbound_nodes": [[["activation_253", 0, 0, {}]]]}, {"class_name": "SeparableConv2D", "config": {"name": "separable_conv_1_normal_right2_18", "trainable": false, "dtype": "float32", "filters": 672, "kernel_size": [3, 3], "strides": [1, 1], "padding": "same", "data_format": "channels_last", "dilation_rate": [1, 1], "activation": "linear", "use_bias": false, "kernel_initializer": {"class_name": "VarianceScaling", "config": {"scale": 2.0, "mode": "fan_in", "distribution": "truncated_normal", "seed": null}}, "bias_initializer": {"class_name": "Zeros", "config": {}}, "kernel_regularizer": null, "bias_regularizer": null, "activity_regularizer": null, "kernel_constraint": null, "bias_constraint": null, "depth_multiplier": 1, "depthwise_initializer": {"class_name": "GlorotUniform", "config": {"seed": null}}, "pointwise_initializer": {"class_name": "GlorotUniform", "config": {"seed": null}}, "depthwise_regularizer": null, "pointwise_regularizer": null, "depthwise_constraint": null, "pointwise_constraint": null}, "name": "separable_conv_1_normal_right2_18", "inbound_nodes": [[["activation_255", 0, 0, {}]]]}, {"class_name": "SeparableConv2D", "config": {"name": "separable_conv_1_normal_left5_18", "trainable": false, "dtype": "float32", "filters": 672, "kernel_size": [3, 3], "strides": [1, 1], "padding": "same", "data_format": "channels_last", "dilation_rate": [1, 1], "activation": "linear", "use_bias": false, "kernel_initializer": {"class_name": "VarianceScaling", "config": {"scale": 2.0, "mode": "fan_in", "distribution": "truncated_normal", "seed": null}}, "bias_initializer": {"class_name": "Zeros", "config": {}}, "kernel_regularizer": null, "bias_regularizer": null, "activity_regularizer": null, "kernel_constraint": null, "bias_constraint": null, "depth_multiplier": 1, "depthwise_initializer": {"class_name": "GlorotUniform", "config": {"seed": null}}, "pointwise_initializer": {"class_name": "GlorotUniform", "config": {"seed": null}}, "depthwise_regularizer": null, "pointwise_regularizer": null, "depthwise_constraint": null, "pointwise_constraint": null}, "name": "separable_conv_1_normal_left5_18", "inbound_nodes": [[["activation_257", 0, 0, {}]]]}, {"class_name": "BatchNormalization", "config": {"name": "separable_conv_1_bn_normal_left1_18", "trainable": false, "dtype": "float32", "axis": [3], "momentum": 0.9997, "epsilon": 0.001, "center": true, "scale": true, "beta_initializer": {"class_name": "Zeros", "config": {}}, "gamma_initializer": {"class_name": "Ones", "config": {}}, "moving_mean_initializer": {"class_name": "Zeros", "config": {}}, "moving_variance_initializer": {"class_name": "Ones", "config": {}}, "beta_regularizer": null, "gamma_regularizer": null, "beta_constraint": null, "gamma_constraint": null}, "name": "separable_conv_1_bn_normal_left1_18", "inbound_nodes": [[["separable_conv_1_normal_left1_18", 0, 0, {}]]]}, {"class_name": "BatchNormalization", "config": {"name": "separable_conv_1_bn_normal_right1_18", "trainable": false, "dtype": "float32", "axis": [3], "momentum": 0.9997, "epsilon": 0.001, "center": true, "scale": true, "beta_initializer": {"class_name": "Zeros", "config": {}}, "gamma_initializer": {"class_name": "Ones", "config": {}}, "moving_mean_initializer": {"class_name": "Zeros", "config": {}}, "moving_variance_initializer": {"class_name": "Ones", "config": {}}, "beta_regularizer": null, "gamma_regularizer": null, "beta_constraint": null, "gamma_constraint": null}, "name": "separable_conv_1_bn_normal_right1_18", "inbound_nodes": [[["separable_conv_1_normal_right1_18", 0, 0, {}]]]}, {"class_name": "BatchNormalization", "config": {"name": "separable_conv_1_bn_normal_left2_18", "trainable": false, "dtype": "float32", "axis": [3], "momentum": 0.9997, "epsilon": 0.001, "center": true, "scale": true, "beta_initializer": {"class_name": "Zeros", "config": {}}, "gamma_initializer": {"class_name": "Ones", "config": {}}, "moving_mean_initializer": {"class_name": "Zeros", "config": {}}, "moving_variance_initializer": {"class_name": "Ones", "config": {}}, "beta_regularizer": null, "gamma_regularizer": null, "beta_constraint": null, "gamma_constraint": null}, "name": "separable_conv_1_bn_normal_left2_18", "inbound_nodes": [[["separable_conv_1_normal_left2_18", 0, 0, {}]]]}, {"class_name": "BatchNormalization", "config": {"name": "separable_conv_1_bn_normal_right2_18", "trainable": false, "dtype": "float32", "axis": [3], "momentum": 0.9997, "epsilon": 0.001, "center": true, "scale": true, "beta_initializer": {"class_name": "Zeros", "config": {}}, "gamma_initializer": {"class_name": "Ones", "config": {}}, "moving_mean_initializer": {"class_name": "Zeros", "config": {}}, "moving_variance_initializer": {"class_name": "Ones", "config": {}}, "beta_regularizer": null, "gamma_regularizer": null, "beta_constraint": null, "gamma_constraint": null}, "name": "separable_conv_1_bn_normal_right2_18", "inbound_nodes": [[["separable_conv_1_normal_right2_18", 0, 0, {}]]]}, {"class_name": "BatchNormalization", "config": {"name": "separable_conv_1_bn_normal_left5_18", "trainable": false, "dtype": "float32", "axis": [3], "momentum": 0.9997, "epsilon": 0.001, "center": true, "scale": true, "beta_initializer": {"class_name": "Zeros", "config": {}}, "gamma_initializer": {"class_name": "Ones", "config": {}}, "moving_mean_initializer": {"class_name": "Zeros", "config": {}}, "moving_variance_initializer": {"class_name": "Ones", "config": {}}, "beta_regularizer": null, "gamma_regularizer": null, "beta_constraint": null, "gamma_constraint": null}, "name": "separable_conv_1_bn_normal_left5_18", "inbound_nodes": [[["separable_conv_1_normal_left5_18", 0, 0, {}]]]}, {"class_name": "Activation", "config": {"name": "activation_250", "trainable": false, "dtype": "float32", "activation": "relu"}, "name": "activation_250", "inbound_nodes": [[["separable_conv_1_bn_normal_left1_18", 0, 0, {}]]]}, {"class_name": "Activation", "config": {"name": "activation_252", "trainable": false, "dtype": "float32", "activation": "relu"}, "name": "activation_252", "inbound_nodes": [[["separable_conv_1_bn_normal_right1_18", 0, 0, {}]]]}, {"class_name": "Activation", "config": {"name": "activation_254", "trainable": false, "dtype": "float32", "activation": "relu"}, "name": "activation_254", "inbound_nodes": [[["separable_conv_1_bn_normal_left2_18", 0, 0, {}]]]}, {"class_name": "Activation", "config": {"name": "activation_256", "trainable": false, "dtype": "float32", "activation": "relu"}, "name": "activation_256", "inbound_nodes": [[["separable_conv_1_bn_normal_right2_18", 0, 0, {}]]]}, {"class_name": "Activation", "config": {"name": "activation_258", "trainable": false, "dtype": "float32", "activation": "relu"}, "name": "activation_258", "inbound_nodes": [[["separable_conv_1_bn_normal_left5_18", 0, 0, {}]]]}, {"class_name": "SeparableConv2D", "config": {"name": "separable_conv_2_normal_left1_18", "trainable": false, "dtype": "float32", "filters": 672, "kernel_size": [5, 5], "strides": [1, 1], "padding": "same", "data_format": "channels_last", "dilation_rate": [1, 1], "activation": "linear", "use_bias": false, "kernel_initializer": {"class_name": "VarianceScaling", "config": {"scale": 2.0, "mode": "fan_in", "distribution": "truncated_normal", "seed": null}}, "bias_initializer": {"class_name": "Zeros", "config": {}}, "kernel_regularizer": null, "bias_regularizer": null, "activity_regularizer": null, "kernel_constraint": null, "bias_constraint": null, "depth_multiplier": 1, "depthwise_initializer": {"class_name": "GlorotUniform", "config": {"seed": null}}, "pointwise_initializer": {"class_name": "GlorotUniform", "config": {"seed": null}}, "depthwise_regularizer": null, "pointwise_regularizer": null, "depthwise_constraint": null, "pointwise_constraint": null}, "name": "separable_conv_2_normal_left1_18", "inbound_nodes": [[["activation_250", 0, 0, {}]]]}, {"class_name": "SeparableConv2D", "config": {"name": "separable_conv_2_normal_right1_18", "trainable": false, "dtype": "float32", "filters": 672, "kernel_size": [3, 3], "strides": [1, 1], "padding": "same", "data_format": "channels_last", "dilation_rate": [1, 1], "activation": "linear", "use_bias": false, "kernel_initializer": {"class_name": "VarianceScaling", "config": {"scale": 2.0, "mode": "fan_in", "distribution": "truncated_normal", "seed": null}}, "bias_initializer": {"class_name": "Zeros", "config": {}}, "kernel_regularizer": null, "bias_regularizer": null, "activity_regularizer": null, "kernel_constraint": null, "bias_constraint": null, "depth_multiplier": 1, "depthwise_initializer": {"class_name": "GlorotUniform", "config": {"seed": null}}, "pointwise_initializer": {"class_name": "GlorotUniform", "config": {"seed": null}}, "depthwise_regularizer": null, "pointwise_regularizer": null, "depthwise_constraint": null, "pointwise_constraint": null}, "name": "separable_conv_2_normal_right1_18", "inbound_nodes": [[["activation_252", 0, 0, {}]]]}, {"class_name": "SeparableConv2D", "config": {"name": "separable_conv_2_normal_left2_18", "trainable": false, "dtype": "float32", "filters": 672, "kernel_size": [5, 5], "strides": [1, 1], "padding": "same", "data_format": "channels_last", "dilation_rate": [1, 1], "activation": "linear", "use_bias": false, "kernel_initializer": {"class_name": "VarianceScaling", "config": {"scale": 2.0, "mode": "fan_in", "distribution": "truncated_normal", "seed": null}}, "bias_initializer": {"class_name": "Zeros", "config": {}}, "kernel_regularizer": null, "bias_regularizer": null, "activity_regularizer": null, "kernel_constraint": null, "bias_constraint": null, "depth_multiplier": 1, "depthwise_initializer": {"class_name": "GlorotUniform", "config": {"seed": null}}, "pointwise_initializer": {"class_name": "GlorotUniform", "config": {"seed": null}}, "depthwise_regularizer": null, "pointwise_regularizer": null, "depthwise_constraint": null, "pointwise_constraint": null}, "name": "separable_conv_2_normal_left2_18", "inbound_nodes": [[["activation_254", 0, 0, {}]]]}, {"class_name": "SeparableConv2D", "config": {"name": "separable_conv_2_normal_right2_18", "trainable": false, "dtype": "float32", "filters": 672, "kernel_size": [3, 3], "strides": [1, 1], "padding": "same", "data_format": "channels_last", "dilation_rate": [1, 1], "activation": "linear", "use_bias": false, "kernel_initializer": {"class_name": "VarianceScaling", "config": {"scale": 2.0, "mode": "fan_in", "distribution": "truncated_normal", "seed": null}}, "bias_initializer": {"class_name": "Zeros", "config": {}}, "kernel_regularizer": null, "bias_regularizer": null, "activity_regularizer": null, "kernel_constraint": null, "bias_constraint": null, "depth_multiplier": 1, "depthwise_initializer": {"class_name": "GlorotUniform", "config": {"seed": null}}, "pointwise_initializer": {"class_name": "GlorotUniform", "config": {"seed": null}}, "depthwise_regularizer": null, "pointwise_regularizer": null, "depthwise_constraint": null, "pointwise_constraint": null}, "name": "separable_conv_2_normal_right2_18", "inbound_nodes": [[["activation_256", 0, 0, {}]]]}, {"class_name": "SeparableConv2D", "config": {"name": "separable_conv_2_normal_left5_18", "trainable": false, "dtype": "float32", "filters": 672, "kernel_size": [3, 3], "strides": [1, 1], "padding": "same", "data_format": "channels_last", "dilation_rate": [1, 1], "activation": "linear", "use_bias": false, "kernel_initializer": {"class_name": "VarianceScaling", "config": {"scale": 2.0, "mode": "fan_in", "distribution": "truncated_normal", "seed": null}}, "bias_initializer": {"class_name": "Zeros", "config": {}}, "kernel_regularizer": null, "bias_regularizer": null, "activity_regularizer": null, "kernel_constraint": null, "bias_constraint": null, "depth_multiplier": 1, "depthwise_initializer": {"class_name": "GlorotUniform", "config": {"seed": null}}, "pointwise_initializer": {"class_name": "GlorotUniform", "config": {"seed": null}}, "depthwise_regularizer": null, "pointwise_regularizer": null, "depthwise_constraint": null, "pointwise_constraint": null}, "name": "separable_conv_2_normal_left5_18", "inbound_nodes": [[["activation_258", 0, 0, {}]]]}, {"class_name": "BatchNormalization", "config": {"name": "separable_conv_2_bn_normal_left1_18", "trainable": false, "dtype": "float32", "axis": [3], "momentum": 0.9997, "epsilon": 0.001, "center": true, "scale": true, "beta_initializer": {"class_name": "Zeros", "config": {}}, "gamma_initializer": {"class_name": "Ones", "config": {}}, "moving_mean_initializer": {"class_name": "Zeros", "config": {}}, "moving_variance_initializer": {"class_name": "Ones", "config": {}}, "beta_regularizer": null, "gamma_regularizer": null, "beta_constraint": null, "gamma_constraint": null}, "name": "separable_conv_2_bn_normal_left1_18", "inbound_nodes": [[["separable_conv_2_normal_left1_18", 0, 0, {}]]]}, {"class_name": "BatchNormalization", "config": {"name": "separable_conv_2_bn_normal_right1_18", "trainable": false, "dtype": "float32", "axis": [3], "momentum": 0.9997, "epsilon": 0.001, "center": true, "scale": true, "beta_initializer": {"class_name": "Zeros", "config": {}}, "gamma_initializer": {"class_name": "Ones", "config": {}}, "moving_mean_initializer": {"class_name": "Zeros", "config": {}}, "moving_variance_initializer": {"class_name": "Ones", "config": {}}, "beta_regularizer": null, "gamma_regularizer": null, "beta_constraint": null, "gamma_constraint": null}, "name": "separable_conv_2_bn_normal_right1_18", "inbound_nodes": [[["separable_conv_2_normal_right1_18", 0, 0, {}]]]}, {"class_name": "BatchNormalization", "config": {"name": "separable_conv_2_bn_normal_left2_18", "trainable": false, "dtype": "float32", "axis": [3], "momentum": 0.9997, "epsilon": 0.001, "center": true, "scale": true, "beta_initializer": {"class_name": "Zeros", "config": {}}, "gamma_initializer": {"class_name": "Ones", "config": {}}, "moving_mean_initializer": {"class_name": "Zeros", "config": {}}, "moving_variance_initializer": {"class_name": "Ones", "config": {}}, "beta_regularizer": null, "gamma_regularizer": null, "beta_constraint": null, "gamma_constraint": null}, "name": "separable_conv_2_bn_normal_left2_18", "inbound_nodes": [[["separable_conv_2_normal_left2_18", 0, 0, {}]]]}, {"class_name": "BatchNormalization", "config": {"name": "separable_conv_2_bn_normal_right2_18", "trainable": false, "dtype": "float32", "axis": [3], "momentum": 0.9997, "epsilon": 0.001, "center": true, "scale": true, "beta_initializer": {"class_name": "Zeros", "config": {}}, "gamma_initializer": {"class_name": "Ones", "config": {}}, "moving_mean_initializer": {"class_name": "Zeros", "config": {}}, "moving_variance_initializer": {"class_name": "Ones", "config": {}}, "beta_regularizer": null, "gamma_regularizer": null, "beta_constraint": null, "gamma_constraint": null}, "name": "separable_conv_2_bn_normal_right2_18", "inbound_nodes": [[["separable_conv_2_normal_right2_18", 0, 0, {}]]]}, {"class_name": "AveragePooling2D", "config": {"name": "normal_left3_18", "trainable": false, "dtype": "float32", "pool_size": [3, 3], "padding": "same", "strides": [1, 1], "data_format": "channels_last"}, "name": "normal_left3_18", "inbound_nodes": [[["normal_bn_1_18", 0, 0, {}]]]}, {"class_name": "AveragePooling2D", "config": {"name": "normal_left4_18", "trainable": false, "dtype": "float32", "pool_size": [3, 3], "padding": "same", "strides": [1, 1], "data_format": "channels_last"}, "name": "normal_left4_18", "inbound_nodes": [[["adjust_bn_18", 0, 0, {}]]]}, {"class_name": "AveragePooling2D", "config": {"name": "normal_right4_18", "trainable": false, "dtype": "float32", "pool_size": [3, 3], "padding": "same", "strides": [1, 1], "data_format": "channels_last"}, "name": "normal_right4_18", "inbound_nodes": [[["adjust_bn_18", 0, 0, {}]]]}, {"class_name": "BatchNormalization", "config": {"name": "separable_conv_2_bn_normal_left5_18", "trainable": false, "dtype": "float32", "axis": [3], "momentum": 0.9997, "epsilon": 0.001, "center": true, "scale": true, "beta_initializer": {"class_name": "Zeros", "config": {}}, "gamma_initializer": {"class_name": "Ones", "config": {}}, "moving_mean_initializer": {"class_name": "Zeros", "config": {}}, "moving_variance_initializer": {"class_name": "Ones", "config": {}}, "beta_regularizer": null, "gamma_regularizer": null, "beta_constraint": null, "gamma_constraint": null}, "name": "separable_conv_2_bn_normal_left5_18", "inbound_nodes": [[["separable_conv_2_normal_left5_18", 0, 0, {}]]]}, {"class_name": "Add", "config": {"name": "normal_add_1_18", "trainable": false, "dtype": "float32"}, "name": "normal_add_1_18", "inbound_nodes": [[["separable_conv_2_bn_normal_left1_18", 0, 0, {}], ["separable_conv_2_bn_normal_right1_18", 0, 0, {}]]]}, {"class_name": "Add", "config": {"name": "normal_add_2_18", "trainable": false, "dtype": "float32"}, "name": "normal_add_2_18", "inbound_nodes": [[["separable_conv_2_bn_normal_left2_18", 0, 0, {}], ["separable_conv_2_bn_normal_right2_18", 0, 0, {}]]]}, {"class_name": "Add", "config": {"name": "normal_add_3_18", "trainable": false, "dtype": "float32"}, "name": "normal_add_3_18", "inbound_nodes": [[["normal_left3_18", 0, 0, {}], ["adjust_bn_18", 0, 0, {}]]]}, {"class_name": "Add", "config": {"name": "normal_add_4_18", "trainable": false, "dtype": "float32"}, "name": "normal_add_4_18", "inbound_nodes": [[["normal_left4_18", 0, 0, {}], ["normal_right4_18", 0, 0, {}]]]}, {"class_name": "Add", "config": {"name": "normal_add_5_18", "trainable": false, "dtype": "float32"}, "name": "normal_add_5_18", "inbound_nodes": [[["separable_conv_2_bn_normal_left5_18", 0, 0, {}], ["normal_bn_1_18", 0, 0, {}]]]}, {"class_name": "Concatenate", "config": {"name": "normal_concat_18", "trainable": false, "dtype": "float32", "axis": -1}, "name": "normal_concat_18", "inbound_nodes": [[["adjust_bn_18", 0, 0, {}], ["normal_add_1_18", 0, 0, {}], ["normal_add_2_18", 0, 0, {}], ["normal_add_3_18", 0, 0, {}], ["normal_add_4_18", 0, 0, {}], ["normal_add_5_18", 0, 0, {}]]]}, {"class_name": "Activation", "config": {"name": "activation_259", "trainable": false, "dtype": "float32", "activation": "relu"}, "name": "activation_259", "inbound_nodes": [[["normal_concat_18", 0, 0, {}]]]}, {"class_name": "AveragePooling2D", "config": {"name": "average_pooling2d", "trainable": true, "dtype": "float32", "pool_size": [7, 7], "padding": "valid", "strides": [7, 7], "data_format": "channels_last"}, "name": "average_pooling2d", "inbound_nodes": [[["activation_259", 0, 0, {}]]]}, {"class_name": "Flatten", "config": {"name": "flatten", "trainable": true, "dtype": "float32", "data_format": "channels_last"}, "name": "flatten", "inbound_nodes": [[["average_pooling2d", 0, 0, {}]]]}, {"class_name": "Dense", "config": {"name": "dense", "trainable": true, "dtype": "float32", "units": 128, "activation": "relu", "use_bias": true, "kernel_initializer": {"class_name": "GlorotUniform", "config": {"seed": null}}, "bias_initializer": {"class_name": "Zeros", "config": {}}, "kernel_regularizer": null, "bias_regularizer": null, "activity_regularizer": null, "kernel_constraint": null, "bias_constraint": null}, "name": "dense", "inbound_nodes": [[["flatten", 0, 0, {}]]]}, {"class_name": "Dropout", "config": {"name": "dropout", "trainable": true, "dtype": "float32", "rate": 0.5, "noise_shape": null, "seed": null}, "name": "dropout", "inbound_nodes": [[["dense", 0, 0, {}]]]}, {"class_name": "Dense", "config": {"name": "dense_1", "trainable": true, "dtype": "float32", "units": 2, "activation": "softmax", "use_bias": true, "kernel_initializer": {"class_name": "GlorotUniform", "config": {"seed": null}}, "bias_initializer": {"class_name": "Zeros", "config": {}}, "kernel_regularizer": null, "bias_regularizer": null, "activity_regularizer": null, "kernel_constraint": null, "bias_constraint": null}, "name": "dense_1", "inbound_nodes": [[["dropout", 0, 0, {}]]]}], "input_layers": [["input_1", 0, 0]], "output_layers": [["dense_1", 0, 0]]}, "keras_version": "2.3.0-tf", "backend": "tensorflow"}